checkpoint_actor.pth (torch_old, 91556 bytes, 14 tensors)

fc1.weight f4 [128, 33]
00000000: 023d 8bbe 12e8 043d 305a 82be 14f7 a9be
00000010: 1fc3 80be ca6d 27bd aa68 3cbe 2f77 84bd
00000020: 4b4f 8fbb c7d8 69bd e8f3 08bd d79a d43d
00000030: 8e6d 983d 3c52 513e 0e97 c3bd d4ef 97bb
00000040: 9d60 dbbe 19a4 4b3d 9e29 82be d17e 8eba
00000050: dbb7 05bd b842 5b3e 974e fdbc 5ad9 063e
00000060: e12a 32be 6fc5 a43e 14ed aabe 0258 2f3e
00000070: 25ec ce3c a014 9bbb de84 ffbd 9e4b f0bc
00000080: 28dd bd3e 3128 9d3e ba28 07bd cf32 6dbe
00000090: cc3e 53bd e66e b03d ecbb acbe f909 f6bd
000000a0: dfdf 123e 1ee7 353e 2135 75bd 8ca9 67bd
000000b0: be93 27be d33a acbd 1ed1 2cbe 9914 00bd
000000c0: e6d5 ae3e ac53 9d3e 1fad 8ebd a37c 42bf
000000d0: 4d3c 9d3e d2f2 22be 75c5 133e e79f 9abd
000000e0: 649c 283d ac9f bdbd 71ad 6e3d 01a1 68be
000000f0: bbbd 623e e48e 273e 9d52 a23d a680 87be
00000100: 1888 9c3c d5d2 c6bd 6c24 d13e e3f5 823e
00000110: e6dc 85be 2157 06be 2b6e a83e e5e5 37be
00000120: 5d41 09be 1c26 7b3d 0ecf 9a3d 145d 43bd
00000130: 1898 14bd 99ab c43b fd51 a4bc 6427 7dbe
00000140: b743 01be ba1d 973e e174 043c 5a5b 92be
00000150: 167a 2fbe 4bfd 473d 42a5 d63c a9ba 1b3c
00000160: 58e0 2a3d abc7 98bc dbed 9bbd d535 433d
00000170: dcea 4a3d af0a e1bd 4042 98be fa4f 0b3d
00000180: 2818 7d3e e719 ad3d b196 46bf 6a25 493e
00000190: 41d7 f43c 088d 323e 0016 5ebe bbfb fb3d
000001a0: 154a 63bd 514f 88bd eafb a4bd 502b 073e
000001b0: c837 303d fafe 033d 61f9 81bd bda4 0aba
000001c0: 19b7 cebd 0039 39be ff41 9abe 81d8 00bc
000001d0: 0a70 02be 9288 7fbe b874 df3d 22cd 39bc
000001e0: 4542 13bb 01a7 37bd 032c bcbd b33b 80bd
000001f0: e08f 003d 0a1a 19bd 7be6 9c3d 2553 4d3e
00000200: 5992 aa3d 5b9c d2bd 5926 9e3d 6cb4 b83f
00000210: 954e 853e ff0d bdbc 28d8 ae3e 868a 673e
00000220: e991 883c 9669 7abe 9e7d 853e e002 3e3e
00000230: af0f 2dbe cdd8 6a3e e1be bb3d 1453 07bd
00000240: f62c edbd 5bd1 79be 86a8 b73e 3859 943c
00000250: 7a5e a43d 7dfc 98be c595 e4bd c8d7 743e
00000260: 435b 10be cc65 4e3d 5127 aa3d 6812 a1bd
00000270: c091 543e 9b4a 03be 86c9 d5bd 3fee 0e3e
00000280: 8e42 3c3e 03da ab3d e691 63bd c127 abbd
00000290: 62d9 ad3e 18f1 c1be fae2 153e 6963 023e
000002a0: 76d3 d4bd 216c 25be 04b9 783e 828b 773e
000002b0: 2473 d43b 0db0 8d3c eb5e 93bd b0ae 173b
000002c0: 2162 ac3d 51d7 4e3d 7e5d 663e d5cd 54bd
000002d0: 3ca9 14be f651 6bbd 1d9b 17be 0d60 0bbe
000002e0: e57b 98bd 9259 ac3d de92 983d 9fe6 733d
000002f0: 20d0 653d 83a4 39bd 38ee 00bd 5833 13be
00000300: 1394 99bd c12f f33d d949 a63d 2341 f13d
00000310: d70a 8b3d b587 bf3f f15b b6be dd07 6f3e
00000320: 1368 29be 561d 8abd 03cd 17bd 49f2 bb3e
00000330: 4a71 40bd ece2 e63a b55b d8bd 3292 f8bd
00000340: 576a d03b d1f8 41bd 6673 f73d 9e59 b13e
00000350: 2db5 7cbe 0ee1 523e a4e8 a4be 0212 6bbd
00000360: 4cd2 f0bc da49 13be 6a04 453e 4d4f 3abd
00000370: eb53 973b 5ea6 853e 81f8 af3c bfa3 5c3e
00000380: 65ea 533c aa45 7c3e 4417 3b3e cb92 3fbd
00000390: 7089 4cbe 58eb 4abc 14b9 a5bd add2 81bb
000003a0: 1912 8c3e 3b3a 7e3e bf2a ac3d 28e2 c6bc
000003b0: ff87 06bd 3edd 193e 2aca 193d d543 e13d
000003c0: 6579 a73d 4ee0 943d 005c f4bd 07bd 933d
000003d0: a250 a23d dc28 cbbe 0423 0bbd 251b bf3e
000003e0: 2710 06bd 5633 0abf 1d1e 77bd 290f a43c
000003f0: f031 783e 51ac e83c 5097 c53c 64fb e7bd
-0.27194983 0.032447882 -0.25459433 -0.33196318 -0.25148866 -0.040876187 -0.18399301 -0.06468045
-0.004373466 -0.0570915 -0.033435732 0.10381096 0.07442771 0.20441526 -0.09550296 -0.004636744
-0.42847148 0.049717043 -0.25422376 -0.0010871534 -0.03264604 0.2141217 -0.030921264 0.1316885
-0.1739917 0.3218188 -0.33384 0.17123416 0.025259087 -0.0047326833 -0.12476514 -0.029332932
0.3708279 0.30694726 -0.032997824 -0.23163913 -0.05157356 0.08614902 -0.33737123 -0.12013621
0.14343213 0.17763945 -0.05986512 -0.056558177 -0.16364953 -0.08409657 -0.16876647 -0.031269643
0.34147567 0.307279 -0.06966614 -0.7597143 0.30710068 -0.15912941 0.14430793 -0.0755003
0.04116477 -0.092589706 0.058270875 -0.22717668 0.22142689 0.16363102 0.079259135 -0.26465338
0.019107863 -0.09708182 0.408481 0.25578222 -0.26145095 -0.13119175 0.3289655 -0.17958792
-0.1340384 0.06131564 0.07559024 -0.047696188 -0.03627786 0.0060019013 -0.020058626 -0.24722058
-0.12623487 0.29514867 0.008084507 -0.2858532 -0.17136416 0.048825543 0.026201848 0.0095049525
0.041717857 -0.018649897 -0.07613727 0.04765876 0.049540386 -0.10988366 -0.29738045 0.03401182
0.24716246 0.08452206 -0.77573687 0.19643179 0.029887797 0.17436612 -0.2168808 0.12303873
-0.055490572 -0.066557534 -0.08055861 0.13200116 0.043021947 0.032225586 -0.063463934 -0.000528883
-0.10093517 -0.1808815 -0.30128476 -0.007864119 -0.12738052 -0.24954441 0.10910934 -0.011340411
-0.002246992 -0.044837 -0.09188082 -0.06261387 0.03138721 -0.03737835 0.07661148 0.20051248
0.08328695 -0.10283729 0.07722158 1.443006 0.26036516 -0.023077963 0.3414929 0.22611436
0.016671138 -0.2445434 0.260724 0.18555784 -0.16900514 0.22934265 0.09167267 -0.033038214
-0.11580841 -0.24396269 0.3587076 0.018108949 0.080258325 -0.29880133 -0.11161379 0.23910439
-0.14097314 0.05039005 0.0830828 -0.07864839 0.20758724 -0.12821428 -0.10438828 0.13958071
0.18384764 0.08391192 -0.05555906 -0.08357192 0.33954912 -0.37879252 0.14637366 0.12733234
-0.103918955 -0.16154529 0.24289328 0.24174312 0.0064834524 0.017295862 -0.071958385 0.0023144893
0.08417154 0.05049831 0.22496602 -0.05195411 -0.14517683 -0.05745121 -0.14805265 -0.13610859
-0.07445506 0.08415522 0.07449888 0.05954611 0.056106687 -0.045322906 -0.031477183 -0.14375055
-0.07498946 0.11874343 0.08119554 0.11780002 0.06789177 1.496329 -0.3561702 0.23342843
-0.16543607 -0.06743877 -0.03706075 0.36708286 -0.04698304 0.0017615235 -0.10564367 -0.121372595
0.006360333 -0.04735643 0.120825574 0.34638685 -0.24678488 0.20593664 -0.3220874 -0.05739022
-0.029397152 -0.14383641 0.19239965 -0.045485783 0.004618158 0.2610349 0.0214808 0.21546839
0.012934302 0.2463595 0.18270594 -0.046770852 -0.19974303 -0.012385212 -0.080919415 -0.003961882
0.27357557 0.248269 0.08406591 -0.024277762 -0.03284454 0.15025803 0.037546314 0.10999266
0.08177451 0.07269345 -0.1193161 0.072137885 0.07925536 -0.3967961 -0.03396894 0.37325397
-0.032730248 -0.5398458 -0.060331453 0.02002676 0.242378 0.02840248 0.024120003 -0.11327246

fc1.bias f4 [128]
00000000: 4c3c 31be 782e b1bd c426 b93c 581d d73d
00000010: d13d 54bd 39f6 023e fad4 2cbe 9271 5dbe
00000020: e274 293e 17be 153e d6e0 9ebd 1786 5dbe
00000030: efdd e2bd 8d76 033f 5e46 33be 300c 053f
00000040: 227d 9d3d a0aa edbd 3b5c 9abe 01b2 abbe
00000050: d74e aabe 737e b73d 07db a7be 5f68 513e
00000060: 9a29 913c 0cce 6cbe 2290 f5be b9d8 3fbe
00000070: 1550 063d 96c4 4ebe 1122 5fbe 1d41 233d
00000080: 323a 83be dd0d 02be 5ee2 243e 1355 993e
00000090: 20f0 3c3d 5637 1d3e b949 0b3e e36d 35be
000000a0: 0b2a b2bd 4412 44bd 24f2 69be eadc 8d3e
000000b0: c37d b83c a531 9abd 43fa 9abd 4fa7 693e
000000c0: da37 f33e 0783 c7be b736 13be e63c 83be
000000d0: c90b a3be b18c 44be 7215 61bb a2e4 26be
000000e0: 48e8 84be b08e 6cbe 416c 84bd d142 adbd
000000f0: 17d7 e83c 2d07 22be 3adc a2bd 99eb 38be
00000100: 1d1a 96bc 1d97 93be 4836 6dbd 6d3f 303e
00000110: 9feb a6bd 36c1 a6bd 1605 13be 1d2e 6ebd
00000120: 3eb6 7bbe a786 97be 004e f7bd 50e2 3abe
00000130: 1ccb 27be 2bcf 01be bd30 50be bd10 953c
00000140: d8f9 613e 2d65 9cbe fca5 8fbc 3e3f a4bb
00000150: 022c b6be 150f 85be 7918 73be 5181 1dbe
00000160: 1fe2 5fbd 7aaf 80be 5780 ea3d e06d 203e
00000170: d27d 9cbe 64d6 993d 76aa 3ebd edb0 68bd
00000180: f3f2 23be 645b 69bc c8ce 19be b24e d33e
00000190: d09d 01be b652 05be 9d28 3c3e c043 35be
000001a0: 4501 9abe 2f78 c8be b6a2 b2be 3c10 5ebe
000001b0: fb49 4c3d 38ae 71be 4a3b 55be a7f8 01be
000001c0: 6df2 9c3e 4aee fdbc c3ac 273e 77bb 2b3e
000001d0: 4d32 953d 12c1 d8bc 767c 08be 8853 2d3d
000001e0: 9e32 77bd e368 a6bd 67b2 aabe e34d c3bd
000001f0: 3274 203e 0943 47be f834 9ebe 2bc4 a4be
-0.17308158 -0.08651441 0.022601493 0.10503644 -0.051816765 0.12789239 -0.16878119 -0.21625355
0.16548494 0.14623295 -0.07757728 -0.21633182 -0.11077487 0.5135277 -0.17507312 0.5197172
0.07689883 -0.1160481 -0.3014849 -0.33534244 -0.33263275 0.08959665 -0.32784292 0.2044997
0.017720032 -0.23125476 -0.47961527 -0.18735017 0.032791216 -0.20192179 -0.21790339 0.03985702
-0.25630337 -0.12700601 0.16101977 0.2994772 0.04612744 0.1535314 0.13602342 -0.177177
-0.08699425 -0.047868982 -0.22846276 0.27707607 0.022520905 -0.07529 -0.07567265 0.2281773
0.4750355 -0.38967153 -0.14376341 -0.256324 -0.3184493 -0.19194295 -0.0034345058 -0.16298154
-0.25958467 -0.23101306 -0.0646596 -0.0846001 0.028422875 -0.1582305 -0.07952161 -0.18058623
-0.018322999 -0.28826228 -0.057913095 0.17211695 -0.0815041 -0.08142321 -0.14357409 -0.058149446
-0.24581239 -0.2959492 -0.12075424 -0.18250394 -0.16386074 -0.12676685 -0.20331092 0.018196458
0.22067964 -0.3054594 -0.017535202 -0.005012422 -0.3558045 -0.2598807 -0.23739804 -0.15381362
-0.054659005 -0.25133878 0.1145026 0.15666914 -0.30564743 0.07511595 -0.046549283 -0.056809355
-0.16010647 -0.014242981 -0.15020287 0.41270977 -0.12657857 -0.13019833 0.18374868 -0.17701626
-0.30079094 -0.39154193 -0.34889764 -0.2168588 0.04987524 -0.23601615 -0.20823398 -0.1269251
0.30653706 -0.030997414 0.16374497 0.16770731 0.07284985 -0.02645925 -0.13328728 0.04231599
-0.060351007 -0.08125474 -0.33339235 -0.0953634 0.15669325 -0.19459166 -0.30899787 -0.32180914

fc1bn.weight f4 [128]
00000000: 057e cf3e b24c a03e 0f16 513f 3cbc 123f
00000010: a257 113f 2595 a53f 9a32 443f ae5c 313f
00000020: 7449 a43f b4ef 6a3f 342c f03e 553d 453f
00000030: c987 003f 2345 373f 32c2 d13e c0a5 313f
00000040: 046f ce3e 3bdf d73e 158e f63e 8b6a ba3e
00000050: a2d0 f33e 1ea8 3e3f 0953 95be 46a1 013f
00000060: 30df 1f3f 53fe 133f 5272 4abe 14e6 663f
00000070: c78b ad3e e63c f53e 5685 f53e 5b92 413f
00000080: d4f2 b2bd 754f c43e 5320 f43e f945 d63e
00000090: e90a 213f 26d1 273f a211 d13e 044f b23e
000000a0: fe68 ba3f 6eff 1d3f 62ee 8f3e 02ab c83e
000000b0: a784 463f 31b4 383f 9236 353f 3ad5 903f
000000c0: f489 053f 88f4 a53e d0bc cb3e 1f47 9a3e
000000d0: ee34 863e 339f 003f 25b7 a03e 3458 b4bb
000000e0: 0438 483f d776 4d3f c9f3 ad3f 47c9 503f
000000f0: 1ddf 593e c0f7 893d 0f2b 073e ec33 b73d
00000100: 1805 873f f375 803e 8460 6c3e 9797 e03e
00000110: db0c ad3e cfe9 873e 252b b03e 2491 a63e
00000120: 2a33 563f d48c b13b 97b8 aa3e 0247 5e3f
00000130: cb9c 353f 6ca6 423f 6086 2b3f 27cd 0c3f
00000140: 86e7 463f 1e50 c23e fa0d 383f 7bc0 443f
00000150: 7fac 4a3e 8e2a a43e 9c0e eb3e b604 f23e
00000160: 2437 973e b89c a13e 87c1 2a3f 7c35 943e
00000170: 1df4 ad3e 221e 2c3f 8554 523f fc4c b93e
00000180: ef14 f03e 60b6 303f 4e92 443f 039c ba3e
00000190: c942 093f 0f71 273f 5fed 003f c9cb b53e
000001a0: 9af6 9e3e ab01 a93e 3b12 b33e 5585 683e
000001b0: 72b0 2b3f 3c04 0d3f cba2 563f e7ec 5b3f
000001c0: 099d 203e f041 e33e a0d2 243f 0067 b03e
000001d0: fa28 1f3f 612a 483f 887a df3e b864 c83e
000001e0: 5520 4e3f e62a cd3e e1d0 083c 147e 073f
000001f0: 45e2 673f 1aab 003f 819d 8b3e 9f9a d93e
0.40525833 0.31308514 0.81674284 0.5731847 0.5677434 1.293614 0.7663971 0.6928204
1.2834916 0.9177201 0.46908724 0.7704671 0.5020719 0.7158987 0.40968472 0.6939354
0.40319073 0.421625 0.48155275 0.3640941 0.47620112 0.74475276 -0.29164913 0.5063671
0.6244993 0.5780994 -0.19770172 0.9019482 0.33895704 0.47898024 0.4795329 0.75613946
-0.08737722 0.3834187 0.4768091 0.4185026 0.6290727 0.6555351 0.40833765 0.3482591
1.4563291 0.6171788 0.2811156 0.3919297 0.7754616 0.7214995 0.7078639 1.1315072
0.52163625 0.32413125 0.3979249 0.30132386 0.26212257 0.5024292 0.31389728 -0.0055036787
0.78210473 0.8025946 1.3590022 0.81557125 0.21276517 0.06736708 0.1320002 0.0894545
1.054843 0.25089988 0.23083693 0.43865654 0.3379887 0.2654557 0.34407917 0.32532609
0.8367182 0.0054183993 0.33343956 0.868271 0.7094237 0.7603519 0.67001915 0.5500054
0.77697027 0.3795175 0.71896327 0.768562 0.19792365 0.32063717 0.45909584 0.4726922
0.29534256 0.3156488 0.6670155 0.28947055 0.33975306 0.6723348 0.82160217 0.36191547
0.4689097 0.6902828 0.76785743 0.36447152 0.5361753 0.6540689 0.503622 0.35507038
0.31047517 0.33009085 0.34974846 0.22707112 0.6706611 0.55084586 0.8384215 0.8590836
0.15684904 0.44386244 0.6438389 0.34453583 0.621719 0.78189665 0.4364817 0.39139342
0.80518085 0.4007179 0.008350582 0.52926755 0.90579635 0.5026108 0.27268603 0.4250078

fc1bn.bias f4 [128]
00000000: 3e11 97be 2192 fdbe 4a82 f03c 0002 20bd
00000010: f2c6 f43d 6100 7b3e b885 ca3e bde6 923e
00000020: bfc9 5b3d f5a7 133e b61c ba3c d0dc 933e
00000030: 6468 913e d0db ed3e af68 aa3d 2163 ef3c
00000040: f0fe eb3e 0da9 643e ac55 253e 1f16 213e
00000050: cbd5 86be 01be 223f ab34 02bf 50d2 043e
00000060: 260f 903b b587 82be 5077 293f d83a f9bd
00000070: e2ee 37bf 025a 84be e03a d83e 566c 9d3e
00000080: e19e 0ebf 4cc6 46bd 2a13 94bd fed2 a83e
00000090: ca75 79bd 4a2a 683e 93b9 923e e98f 183f
000000a0: cae4 45be 2efc 9f3e 48be ce3e 0df0 dc3e
000000b0: 36f0 8a3e 7e3b b8be b4f3 063f 0c06 0a3c
000000c0: 947a 0bbf 02e7 213e fe73 633e ef6b eb3d
000000d0: 05cc 143e 30a2 043f 0eb7 893e e94e 03bf
000000e0: 5c72 a23e 6149 bc3e 173c 0bbd 00fc 5e3e
000000f0: 35c5 73be 8646 08bf 054e db3e 1f27 3bbf
00000100: 3200 ec3e df23 1cbf 1458 823e a758 343f
00000110: e776 a73d 4390 2e3d 79ef 24be 4516 0a3f
00000120: bf6b 4b3e 6c14 203f d10b 71be f5d6 63be
00000130: 1094 603e 2314 92be e49c 8b3d d525 9fbe
00000140: e938 443e 6ed6 603d 4bab c5be 7f72 8dbd
00000150: 2e7c 993d f43b b73e 515d 00bf 4483 44be
00000160: b08a 10bf 8d2c da3e b56a 0cbd 3d44 303e
00000170: eb7a 053e 9973 16be 9c7c acbe 71b1 d03d
00000180: 091c 13bd 82fc 323f f0b4 bcbe 2b14 f3be
00000190: 9cd0 1ebe d9fa 253e 3e15 2abe 3fe3 653e
000001a0: bd9c 073e 2945 bf3e 5571 8ebe cf80 9a3d
000001b0: 8c05 35bd 08f5 e63e ea4b 583d 5674 343d
000001c0: 87c2 0abf 23b6 28bf d55e cbbe b845 80be
000001d0: c014 d33e 2950 f2be 9e1b 783e 5a8e f8be
000001e0: 0f45 523e e5bf 0c3f 227f 43bf 1308 1ebf
000001f0: 108e e33e 5d6c cb3e 724d 2a3f 95c8 41bc
-0.29505342 -0.4952555 0.029359002 -0.039064407 0.11952008 0.24511863 0.39555144 0.28691664
0.053659197 0.1441954 0.022718769 0.28879404 0.28399956 0.46456766 0.08320748 0.029222073
0.4609294 0.22330113 0.16145962 0.15731095 -0.26334986 0.6357117 -0.50861615 0.12970853
0.004396337 -0.2549416 0.6619768 -0.12169427 -0.7184888 -0.2584992 0.42232418 0.30746716
-0.5571118 -0.048528954 -0.07230218 0.32973474 -0.060903348 0.22672382 0.28657207 0.5959459
-0.19325557 0.31247085 0.40379548 0.43151894 0.2713639 -0.3598289 0.5271561 0.008424293
-0.54483914 0.15810779 0.22212216 0.11495196 0.14530952 0.5180998 0.26897472 -0.5129228
0.31727874 0.36774734 -0.033992853 0.21775818 -0.23805697 -0.5323261 0.42832962 -0.7310657
0.460939 -0.60992235 0.25457823 0.7044777 0.08176976 0.042618047 -0.16106977 0.5394023
0.1986532 0.6253116 -0.23539664 -0.22249968 0.21931481 -0.28530988 0.06817034 -0.3108355
0.19162335 0.054891996 -0.3860725 -0.06906604 0.074943885 0.35787928 -0.5014239 -0.19190699
-0.5646162 0.42612115 -0.03428145 0.17213531 0.1303517 -0.14692535 -0.3368882 0.10190094
-0.03591541 0.69916546 -0.36856794 -0.47476324 -0.15509266 0.16208972 -0.16609666 0.22449969
0.13243385 0.37357453 -0.2782084 0.075440995 -0.044194743 0.4510882 0.052806772 0.04405626
-0.54203075 -0.6590292 -0.3972079 -0.2505319 0.41226768 -0.47326782 0.24229285 -0.48546106
0.20534156 0.5498031 -0.76365864 -0.6173107 0.44444323 0.39731112 0.6652442 -0.011827608

fc1bn.running_mean f4 [128]
00000000: 6241 0b3f e2d8 513f e455 d03e 2b8a ef3e
00000010: 62df d23e bb81 c13e d7f6 343f 7402 243f
00000020: 77e2 3e3f 89cf 2d3f 517e 323e d159 a13e
00000030: 86dd d73e feff 4340 45c5 1e3e a174 2140
00000040: 5316 1340 894c 363e b913 013e 1133 593e
00000050: 4112 8b3e 10d0 7d3f 08f0 3b3d 0e45 d63e
00000060: 2aa4 113f f2bd 403e 73fa 933b c0e4 0c3e
00000070: c412 cc3e bc41 fb3e 17c0 843f 60e6 233f
00000080: 1372 983f d3fa 033f 0351 643f 9e12 a040
00000090: f225 623f 7eb2 a33e f890 f43f 0205 453e
000000a0: f965 d83e ba89 3c3f bf43 5c3f e187 ec3f
000000b0: c2f2 8c3d 021d b63d 6a1f 513f 7fa2 e53f
000000c0: d71f 933f 74d2 113e fafb c83e e261 873d
000000d0: dbb6 7c3a b6a9 b33e 4274 5e3e e34c 683a
000000e0: dd9a f93d 1f7f a33e d17b f93e 6824 aa3e
000000f0: 511d 163f 2f39 a43e 6126 013f 4f42 e63a
00000100: e617 223e 8170 e13d 05f8 683f d886 343f
00000110: c584 353f fe9a 8a3f 6708 823e f50e 503f
00000120: 595b 143f 4045 7d3c e443 f63d c67d bd3d
00000130: db1c 493e 636b 003f 3de6 783e 1a9f 6a3e
00000140: 6429 a53f 846a a93e 885a 023f eb53 753f
00000150: 00f6 023e dece ca3a 98e3 c83d 8f06 a83e
00000160: 5edc 713e 853f a13e ee42 893f d037 1440
00000170: cd20 9a3e 454d 153f 5746 703e e90e d43e
00000180: 2dcd 0f3f 4d69 f63e dffe 673e de59 dc3f
00000190: 2405 e63e 35ab bf3e d348 e03e ccb8 f23e
000001a0: e6a0 5e3e 0954 a23e c76e b33c 6688 a43f
000001b0: 0560 513f c6f5 733e 92aa 0f3f f797 713f
000001c0: d865 7f3f 8c73 d93e 7f12 8f3e 4859 6c3f
000001d0: 35c6 303f 85d5 6a3f a34c cb3e 92ad 713e
000001e0: 6a4f 683f 3849 7c3f 9ddc de3b 8cf5 a53e
000001f0: 9686 db3e 4b8c 5b3e 92ad 763c d612 0e3e
0.5439664 0.8197156 0.4069053 0.467851 0.41186053 0.3779429 0.7068915 0.64066243
0.7456431 0.678948 0.17430998 0.31513837 0.42161196 3.0624995 0.1550494 2.5227435
2.2982376 0.17802633 0.1260518 0.21210887 0.27162364 0.99145603 0.04588321 0.4184956
0.5689112 0.18822458 0.00451594 0.13759136 0.39858067 0.4907359 1.0371121 0.640234
1.1909813 0.515546 0.89186114 5.0022726 0.8833915 0.31972116 1.9106741 0.19240192
0.422653 0.73647654 0.8604087 1.8478967 0.0688224 0.088922516 0.8168856 1.7940215
1.1494092 0.14240438 0.39254743 0.066104665 0.00096402847 0.35090417 0.21724036 0.00088615547
0.12187741 0.31932923 0.48727277 0.332309 0.58638483 0.32074878 0.50449187 0.0017567369
0.15829429 0.110077865 0.9100345 0.70518255 0.70905715 1.082855 0.25397035 0.8127282
0.57951885 0.015458405 0.12024668 0.09252505 0.19639914 0.5016386 0.24306579 0.22912255
1.2903256 0.33089077 0.5091939 0.95831174 0.12789154 0.0015473028 0.09809035 0.32817504
0.2361922 0.31493774 1.072355 2.3159065 0.3010315 0.5832103 0.23464333 0.41417626
0.5617245 0.48127213 0.2265582 1.7214925 0.44925797 0.37435308 0.4380556 0.47406614
0.21741065 0.3170474 0.021903409 1.2854125 0.8178714 0.23824224 0.56119645 0.94372505
0.99764776 0.42470968 0.279438 0.9232373 0.6905244 0.91732055 0.39706907 0.23601368
0.90746176 0.9854922 0.0068012015 0.324139 0.42876118 0.21440236 0.015056031 0.13874373

fc1bn.running_var f4 [128]
00000000: 65b5 803f 506c a83f 1300 9c3e 4e6d b53e
00000010: aa9f 083f a5a9 bc3e 5f50 883f eca0 2e3f
00000020: 74ec 2e3f 45f2 af3e c61e 173e f279 f93e
00000030: 616e 153f 8833 793f 3b32 393e 3fcd a83e
00000040: 3fd2 9e3f 2977 5e3e e287 213e 091d 813e
00000050: e816 b13e 5679 b23f b588 6d3d f727 d03e
00000060: c7b5 243f daf3 0a3e cf9c 783b 591a d93d
00000070: dca7 253f 7c4b 3f3f 90e9 af3f d88c ba3e
00000080: d6d8 f03f 91e1 3e3f 3c98 513f f5f5 893f
00000090: d9d4 b63f a4f6 c03e d474 2e40 aa60 bf3e
000000a0: bc3c a23e 4a3a 9a3f 7215 d93f 5644 7340
000000b0: 3eca 3b3d 40a6 2b3d c51e b33f 5abb 4a3e
000000c0: 033e 543f f6fb 123e 333a 1e3f 6655 ae3d
000000d0: b87f 583a 949b 2c3f ad3d 583e e308 873a
000000e0: 1c3e 7c3d a3cd c33e 884e e93e b234 943e
000000f0: 71c1 5e3f 397e f83e a67a 393f 61c1 833b
00000100: d9f8 e43d 2a89 ff3d 25bd 8f3f a180 833f
00000110: e3ee 5f3f 8b4f 0140 99a6 ce3e 04a3 973f
00000120: a659 253f 16f7 4c3c 9798 033e 892f ad3d
00000130: 1ea5 403e 55e1 0c3f 59d0 a13e 0a41 603e
00000140: a79a a73f a456 083f b558 d23e a30a 863f
00000150: b56b 233e f172 c83a 5de0 7c3d db5e 973e
00000160: 682d 853e 9cf6 993e fd90 113f 9ebf 7540
00000170: 488f f73e 30fa 163f 58f4 7e3e d25a 343f
00000180: d72f 453f 61a4 0b3f 5da3 703e 7018 973f
00000190: e015 173f 81ec 013f 4556 1c3f 86fa 3a3f
000001a0: e199 483e c4db f73e bb0f bb3c 99ff 953f
000001b0: bd34 113f a7f2 a93e 2caf 2a3f 5761 923f
000001c0: 6414 8e3f 23fb 083f dbd7 b93e 40bc 4f3f
000001d0: 760d 833f 5947 623f 022b ca3e 8e71 793e
000001e0: 9784 683f d232 bb3f 7957 c83b d655 b63e
000001f0: b54c f53e c84c 6d3e c3e5 883c faee 123e
1.0055357 1.3158054 0.30468807 0.35434955 0.5336863 0.36848179 1.0649527 0.682143
0.6832955 0.34364524 0.14757833 0.4872585 0.5837155 0.97344255 0.18085568 0.3296909
1.2407912 0.21725143 0.15774491 0.25217465 0.3458779 1.3943279 0.057991702 0.4065549
0.6433987 0.13569584 0.0037935262 0.106007285 0.6470926 0.74724555 1.3743153 0.3643558
1.8816173 0.7456294 0.81872916 1.0778185 1.4283706 0.37688172 2.7258806 0.37378436
0.31686962 1.2049038 1.695967 3.801046 0.04584717 0.041906595 1.3993765 0.19798031
0.8290712 0.14353928 0.61807555 0.08512382 0.00082587777 0.67424893 0.21117277 0.0010302331
0.06158267 0.38242826 0.45567727 0.28946453 0.8701392 0.485338 0.7245277 0.0040208553
0.111802764 0.12477334 1.1229597 1.027363 0.8747389 2.02048 0.4036148 1.1846623
0.6458992 0.012510082 0.12851177 0.08456332 0.18812987 0.5503133 0.3160427 0.2189981
1.3094071 0.53257203 0.41083303 1.0471996 0.15959056 0.0015293044 0.061737407 0.29564556
0.26011205 0.3007096 0.5686186 3.8398204 0.48351502 0.58975506 0.24897897 0.7045108
0.7702612 0.545477 0.23499818 1.1804333 0.59017754 0.507515 0.61069137 0.7303852
0.1958995 0.48409855 0.02283465 1.1718627 0.567211 0.33192942 0.6667354 1.1435956
1.1099973 0.53508204 0.36297497 0.8114662 1.0238483 0.8839012 0.39485937 0.24359724
0.90827316 1.4624884 0.006113943 0.35612363 0.47910085 0.23173821 0.016711121 0.14348975

fc2.weight f4 [128, 128]
00000000: 5727 b03e 5be8 353e 79f3 79be 5717 65bc
00000010: e477 c0bc d306 173e 2182 b5bd 534a ebbd
00000020: 282d a63e 7ec9 c2be 1674 693e 27ae 7bbe
00000030: 9ed9 2f3e f22a 35be 7b5d 67bd b79d 963c
00000040: ff96 6d3d 194a b53d b7ab 7d3e 6e79 39be
00000050: 7832 1f3d fce6 ff3c a19a a1bb 6d69 d9be
00000060: ebdf 313e ed62 0fbd d8c3 7dbd d47e 823c
00000070: 5696 e8bc b9a2 69bd 1c83 4f3e 9e2b 443e
00000080: bf6a 953c 8adc 9ebc 341d 193c 0109 03bf
00000090: 2bad dc3d 5885 34be 3f7a d1bd 9f9d 30be
000000a0: 9d0a 02bd e9de 36be 48aa 14be e606 ecbd
000000b0: 1476 263d 4f80 463d 1952 c03d 501d 88be
000000c0: c3d9 153d 73ab 143e 9125 31bd 28b1 92bd
000000d0: 1f7a 2bbe 1a97 1ebd d639 58bd c5e1 8a3e
000000e0: 834e aebd bec2 92bd ad0f d83d 06a6 2abe
000000f0: ab4e 8abc f6e0 133e b443 5d3c 00dc 7a3e
00000100: 396d 2fbe cfd2 1d3e e951 83bd d461 5abd
00000110: a60d 30be 8cfd 92bd e0eb 913e 5c7a 4abe
00000120: 1653 ac3d 6a96 21be 0243 2fbd c051 adbe
00000130: a40d 413e 06d8 e3bc 50d6 5e3c 5cae 4b3e
00000140: 5aa2 a03e efa8 9d3e bb05 9abd 16d0 c0be
00000150: 772d bcbe 117e b33d 7ba7 5cbd 38d1 30be
00000160: 1b89 e7bc 3057 863d fd17 8b3d 3918 87bd
00000170: bf63 3abd 8066 dbbd eeeb aebd 006a 7f3d
00000180: 65cb 803e e0bf e03a 646f 973e 26fa e8bc
00000190: 68d6 cdbd 8d26 83bd 95a4 e03d 716a f13c
000001a0: aa48 19be c90c 353e 0661 633e 4c55 81bd
000001b0: ed2c 483e d86c a23c 8091 dc3d a8d7 203e
000001c0: b196 3f3e a899 2a3e 2c98 f5bc 1d22 b53d
000001d0: ebf6 063e 4a4a 453d 40cb 003e 00f7 90bd
000001e0: 1a6e d5bc 8efc 123e 4887 503e 675d 0fbd
000001f0: 73bf cebe e5c1 263d 230e 82bd 2ad4 c5bc
00000200: 49ef d43c e10c 893e 3733 753e e8dd 8cbe
00000210: 8746 c83d 3c52 76bd 819e 82bd 4bec f83d
00000220: cab3 64be 1841 0f3d 195d 9f3d 755d 163e
00000230: 7ad4 34bd 92b4 36be 73d8 95be c601 23bd
00000240: 4639 78be aa99 1b3d b209 ff3d 58ee 0ebe
00000250: 4c1c a93e 9e45 20be edc3 b93e 3b7e 143e
00000260: 164b 75be 50ed 403e 1b38 9abe 2f26 94be
00000270: f69e f43d 9ffb 813e bdb0 79bd d2bf ebbd
00000280: 5471 243e 8a79 10bd 17dc d13d d0d8 a43d
00000290: db51 943e 67fa 7f3d b171 16bc 85fa 90be
000002a0: d294 45be 25f6 553d e0ef 4f3e 7689 2fbe
000002b0: a228 923d 2305 4fbc a1af b0bb 5fb2 1cbd
000002c0: bda8 7a3d 2e4c c2bd d3b3 b5be 5ff4 40bd
000002d0: e4ba 1cbe 6712 0f3d 4b9c 06bf 8168 033e
000002e0: 5969 13be 9d5d 27bb 1398 b33d 5e7b 963d
000002f0: c378 003e 5127 803e d1e6 c1ba b8bc 0e3e
00000300: f02f 86be b687 283e 45cb 28bd 80f6 91be
00000310: 1363 d6bd d8f2 5cbd 323b 003e 4ad9 8dbe
00000320: 3675 d53d 9e3b 86bd 3ab8 643e 07e1 253d
00000330: 399c cfbc ec0f 6b3e e7df 803e f24e b83d
00000340: 0f31 623d 4ffe ca3d 5d1e 3c3e 3965 b8bd
00000350: 18b1 9cbd 05b7 39be feb3 e03d 8baa 6a3e
00000360: 96a7 063e 1512 b7bd 4d5c d33c f10d a63d
00000370: 1e78 ab3d 08a8 af3d 986a 5a3d 7f84 59be
00000380: a4ad 6d3a 6f4b 573d e055 b33e 7822 193e
00000390: f3c1 6c3e 868e bb3d e1bc ebbc 4cd3 30be
000003a0: 0be2 89bc 2d69 debb d5d8 0c3e 455b 98be
000003b0: 64c5 98bd 21a2 dcbd 59a7 c03d a56b ef3d
000003c0: f2f1 fb3d 0f4b 4b3e a254 dd3d c966 cb3c
000003d0: 06e3 c5be 4e87 863d 389a 5fbd 5663 033e
000003e0: e78c 81be 1fea abbe de03 763e 6c6a 853e
000003f0: 46a2 8dbc 868b 46bd aefc acbe 0ee2 09be
0.34405014 0.17764418 -0.24409284 -0.013982615 -0.023494668 0.14748697 -0.08862711 -0.114887856
0.32456326 -0.3804435 0.2279819 -0.24578153 0.17172858 -0.17692164 -0.056485634 0.018385751
0.05800533 0.08852024 0.24772535 -0.18112728 0.03886649 0.031238072 -0.0049317633 -0.42463246
0.17370574 -0.035006452 -0.06195435 0.015929617 -0.028391998 -0.05703995 0.20264858 0.19157264
0.018239377 -0.01939227 0.0093453415 -0.51185614 0.10775217 -0.17628992 -0.10228395 -0.17247628
-0.031748403 -0.17858471 -0.14518082 -0.11524753 0.04063995 0.04846221 0.09390659 -0.26584864
0.036584627 0.14518528 -0.043248717 -0.07162696 -0.16745804 -0.03871832 -0.05278953 0.27125373
-0.08511069 -0.071660504 0.10549865 -0.16664895 -0.016883215 0.14441285 0.013504911 0.24497986
-0.17131509 0.15412448 -0.064121075 -0.053315952 -0.17192706 -0.071772665 0.2850027 -0.19773239
0.08414285 -0.15780035 -0.042788513 -0.33851433 0.1885286 -0.027812969 0.013600901 0.19890732
0.31373864 0.3079295 -0.07520624 -0.37658757 -0.36753437 0.0876428 -0.05387066 -0.1726731
-0.02826362 0.065595984 0.06791685 -0.06596417 -0.04550528 -0.1071291 -0.08541094 0.06235695
0.25155178 0.0017147027 0.29577172 -0.028439593 -0.1005066 -0.06403837 0.109688915 0.0294697
-0.14969125 0.17680658 0.2220498 -0.06315097 0.19548388 0.019827291 0.107699394 0.15707266
0.18709828 0.16660178 -0.029979788 0.08844397 0.13180129 0.04816655 0.12577534 -0.070783615
-0.026053477 0.14354154 0.20364106 -0.035001185 -0.4038044 0.040712256 -0.063503526 -0.02414902
0.025993006 0.26767638 0.23945318 -0.2751305 0.09779077 -0.06013702 -0.063778885 0.12154444
-0.22334209 0.034974188 0.07781429 0.14684089 -0.044147946 -0.1784232 -0.292667 -0.039796613
-0.24240598 0.037988342 0.12453021 -0.13958108 0.330294 -0.15651557 0.36282292 0.14501278
-0.23954424 0.18840528 -0.3012093 -0.28935382 0.11944382 0.25387284 -0.060959566 -0.11511196
0.16058856 -0.03527216 0.10247057 0.08049166 0.289687 0.06249466 -0.00918238 -0.2831613
-0.19295052 0.052236695 0.20306349 -0.17142281 0.07136656 -0.012635502 -0.0053920303 -0.038256045
0.061196078 -0.09487186 -0.35488757 -0.04710805 -0.15305668 0.03492966 -0.52582234 0.12832834
-0.14395656 -0.0025537976 0.0876924 0.07347749 0.12546067 0.25029996 -0.001479352 0.13939178
-0.26208448 0.1645802 -0.041209478 -0.28508377 -0.10468116 -0.05394253 0.12522581 -0.2770484
0.10422747 -0.0655434 0.22335902 0.040497806 -0.025343047 0.22955292 0.25170824 0.089994326
0.055222567 0.09911787 0.18370958 -0.09003682 -0.076509655 -0.18136223 0.10971831 0.2291662
0.13149866 -0.08938996 0.025800848 0.08108128 0.0837252 0.08576971 0.053324312 -0.2124195
0.0009066707 0.052562173 0.35026455 0.14954555 0.23120861 0.091580436 -0.028776588 -0.17268103
-0.016831418 -0.0067874403 0.1375459 -0.29757133 -0.07459524 -0.10773111 0.09406919 0.116904534
0.12302007 0.19852851 0.10807158 0.024829285 -0.38649768 0.06568776 -0.054590434 0.12830862
-0.25302812 -0.33577058 0.24024913 0.26057756 -0.017289292 -0.048472904 -0.3378653 -0.1346514

fc2.bias f4 [128]
00000000: 501e 04be 084a 7bbe cb71 84be 7104 b63c
00000010: ff2e a9bd ee6a 9ebe 334f 78be acbd 81be
00000020: 8d58 8ebe 233d 67be 34a2 c2be ed5d ffbc
00000030: bcaf 80be a699 3bbe 960d a4bd 497e ab3d
00000040: 84c5 f23d e9a2 5abe 007a 9dbe 9368 64be
00000050: 1de9 62be 00b8 34bd fada 90be b0e4 5abd
00000060: 3da2 aabe 3653 9dbe 3a7b 5d3d 9a25 65be
00000070: fa92 b5bc 7ed5 1cbe 60a7 49be ae0f 86be
00000080: eee0 f33c 447f 2ebe eeb0 05bd 0d7d 61bc
00000090: 5eb5 003d 3fe2 06bd ab78 0cbe 2fc6 3abe
000000a0: 7cd4 d5bd 6924 a5bd 9ad3 c03d 52db c7bd
000000b0: ba5f 4a3f 1c4a b5bd c206 85bd d723 4a3f
000000c0: eb72 57be bc70 a1be e8d3 abbd b4f8 31bd
000000d0: f4de 2cbd 018e 2abe 3a1d 093e f723 923c
000000e0: 548a 09be 5630 41be 3bf5 8cbc 4846 883c
000000f0: 5ee3 96bd 625a c8bc 80c7 343e b120 4d3d
00000100: a05c 32be 774b dcbd 7bd4 f9bc 1c30 8cbe
00000110: 408f 33be 7779 88be bb22 31be 3eab 96bd
00000120: e252 83be 3d27 19be 6966 7fbe b51a 51be
00000130: c65b fa3d 0afe 7abe ba6a 92be 9ec7 1f3e
00000140: 3af5 51be 78f8 0e3d 1ed7 69be d902 1e3f
00000150: f5df f4bd 3515 44be 6d93 9d3e d08a 2bbe
00000160: 44cb 30bd 2560 b6bd 60a5 c73c d735 58be
00000170: c85b 22be 6cc3 0cbe e0a3 d53a 104a 79be
00000180: 870d 51be 1bd0 52be f13d 2ebe c848 68be
00000190: 72b6 f9bd cb33 32be 3a41 1cbe 40e8 e4bd
000001a0: 050f 30bd 6a63 e7bd 57a8 91be 879a 5ebe
000001b0: 6290 2638 6afc adbe 0d05 abbd 9527 05bd
000001c0: d36b f43d 8378 7dbd 298e 5cbe d673 33be
000001d0: cc45 87be a9c2 50be e498 31be 86e8 83be
000001e0: 6293 a7bd 74b7 3cbe 9080 c8bd 0441 afbe
000001f0: f38d 1fbe a6f8 79be 99b8 853e 216d 38be
-0.12902188 -0.2453996 -0.25868067 0.022218915 -0.08260917 -0.30940956 -0.24248962 -0.2534002
-0.27801934 -0.22581916 -0.38014376 -0.031172717 -0.25134075 -0.18320331 -0.08010404 0.08373696
0.11854079 -0.21351208 -0.3075714 -0.22305517 -0.22159238 -0.04412079 -0.28292066 -0.05344075
-0.33326903 -0.30727547 0.054072596 -0.22377625 -0.02216481 -0.15315816 -0.19692755 -0.26183838
0.02977034 -0.17040735 -0.032639436 -0.013762725 0.031422965 -0.03293061 -0.13717906 -0.18239664
-0.10440919 -0.08063585 0.0941536 -0.09758629 0.7905232 -0.08852026 -0.064954296 0.7896094
-0.21039931 -0.31531322 -0.08390027 -0.043450072 -0.042204812 -0.16655733 0.13390055 0.017839415
-0.13431674 -0.18866095 -0.017206779 0.016635075 -0.073675856 -0.02445716 0.17654228 0.050080005
-0.17418146 -0.10756581 -0.030496826 -0.27380455 -0.17535114 -0.2665517 -0.17298405 -0.073568806
-0.25649172 -0.14956374 -0.2494141 -0.20420344 0.12224536 -0.2451097 -0.2859705 0.15603492
-0.20503703 0.034904927 -0.22835967 0.61723095 -0.11956779 -0.19148715 0.3077654 -0.16752172
-0.0431626 -0.08905057 0.02437085 -0.21114288 -0.15855324 -0.13746423 0.0016299449 -0.24344659
-0.20415317 -0.20587198 -0.17015816 -0.22684014 -0.12193002 -0.1740257 -0.15259257 -0.11177111
-0.042983074 -0.112982586 -0.28448746 -0.21738635 3.971195e-05 -0.3398164 -0.08350573 -0.03250845
0.11934628 -0.061882507 -0.21538605 -0.17524657 -0.26420438 -0.20386757 -0.1734348 -0.2576334
-0.08182408 -0.18429357 -0.09790146 -0.3422929 -0.15581493 -0.24411258 0.261174 -0.1801038

fc2bn.weight f4 [128]
00000000: e2f0 9b3f 6152 ba3e fdb4 e03f 7d37 ad3f
00000010: 33db d23f 319f e93e 3756 023f 751e 813f
00000020: f563 b13f b6ab 9f3f 902b bb3f 6574 853f
00000030: 4f66 ad3f 51b2 863f f600 663f 66a6 963f
00000040: 7987 963f c9eb ba3e a66e 983f 65fb cb3e
00000050: 583c c73f fecf d43f 1173 ea3e 5016 963f
00000060: 4a97 9d3f 6d71 453f 9f20 d03f 8312 223f
00000070: 747b c43f 3dfa 933f 36ff 743f 02b0 073f
00000080: ccc6 b33f 05cb 9c3f e469 d53f e499 c73f
00000090: 76f6 903f 5ba4 be3f 971f 5c3f 0435 b83f
000000a0: 5b52 933f a14d ab3f 7e91 843f 8605 c33f
000000b0: a2a6 563f 33cd e03f ffa7 ad3f da50 483f
000000c0: 512d bd3f c7f7 243f 71a5 0240 0366 993f
000000d0: a6ef d6bf 5b17 e03f b660 bf3f 7ead 8b3f
000000e0: 954a df3f 9bf1 ac3f 2b4b f83f 8af8 473f
000000f0: 75a2 de3f 8bfe fc3f 0254 dd3f e017 983f
00000100: 08f5 9d3f 8180 db3e 73d5 a53f 355b 433f
00000110: 738c 753f bf91 a43f 2900 823f d0de b33f
00000120: 41ce 633f ed79 a83f 85f8 af3f 9e8a a13f
00000130: 5da3 b83f d478 9c3f 0e03 263f ca75 953f
00000140: b984 8c3e 70c2 c73f f099 5e3f 84cb eb3f
00000150: fa08 e03f cf12 933f a73d d43f 94c0 da3f
00000160: e6f0 b73f c73c a83f f09c b13f 7a0f 893f
00000170: b782 ce3f 8308 c83f add8 a13f f3ad 6e3f
00000180: a079 8b3f c589 703f aec6 b43f 3dcb 183f
00000190: 89ce 843f 509d 9d3f 89e5 7e3f d2fe 903f
000001a0: de7e 803f 6b2d d83f 17b1 5c3f bf76 cd3f
000001b0: 72bb f63f 0482 bf3f 725b 5d3f 82d8 b63f
000001c0: 8b7a b33f aa3f a13f 1113 6b3f 0877 593f
000001d0: 64dd cb3f 6c98 193f ec14 cd3e faa8 c53f
000001e0: cc8b b73f 6879 c93f 0013 ce3f c61f cf3f
000001f0: 7a0a 983f 33ef 4f3f 2441 a13f 7ef3 723f
1.2182887 0.36390975 1.7555233 1.3532559 1.6473144 0.45629266 0.50912803 1.008742
1.385863 1.2474277 1.4622669 1.0426146 1.3546847 1.0523168 0.89845216 1.1769531
1.1760093 0.36508015 1.1908767 0.39840236 1.556529 1.6625974 0.45790914 1.1725559
1.2311795 0.771262 1.6259955 0.63309497 1.5350175 1.1560742 0.9570192 0.5300294
1.4045043 1.2249457 1.667294 1.5593839 1.1325214 1.4893907 0.859857 1.4391179
1.1509508 1.3383065 1.0356901 1.5236061 0.8384801 1.7562622 1.3566893 0.7824837
1.4779454 0.6444058 2.0413477 1.1984257 -1.6791885 1.7507128 1.4951389 1.0912321
1.7444636 1.3511232 1.939794 0.78113616 1.7393328 1.976518 1.7291262 1.1882286
1.2340403 0.42871478 1.2955765 0.76311046 0.95917434 1.2856978 1.0156299 1.4052372
0.88986593 1.3162209 1.3747717 1.2620428 1.4424855 1.2224374 0.6484841 1.1676571
0.2744501 1.5606213 0.8695364 1.8421483 1.750274 1.1490115 1.6581315 1.709002
1.4370391 1.3143548 1.3876019 1.0707848 1.6133641 1.5627598 1.2644249 0.93234175
1.0896492 0.9396022 1.4123132 0.59685117 1.037553 1.2313633 0.9956899 1.1327765
1.0038717 1.688886 0.8620772 1.6051863 1.9275954 1.4961553 0.8646766 1.4284823
1.4021772 1.2597554 0.9182597 0.8494725 1.5926938 0.599982 0.40055025 1.5442193
1.4339538 1.5740175 1.6099548 1.6181571 1.1878197 0.81224364 1.2598004 0.9490279

fc2bn.bias f4 [128]
00000000: 0e12 203e e844 84bd 5d63 03bd 9b68 bc3d
00000010: e5ec 79be 9a91 e33c 4969 9c3d adf5 643e
00000020: 19d2 03bd 032f de3c 5ee6 25bd 0365 a73d
00000030: 26b1 a3bc cef5 893c 789a 303e 223e 8bbd
00000040: 1f4c e0bd afd4 0dbc 5a9e ab3d 2e2f 1e3d
00000050: 2823 773d 9261 8abe 6c3a 813c 7d0a b53c
00000060: a82c 78bd 7732 d7bc 0682 f63d ed3d 03bd
00000070: 711c 123e a7b2 d13c 5355 333e da99 35bd
00000080: 965e d73d bfc6 0cbd d9b4 133e d775 bf3d
00000090: 3b16 f83c f64b c03d b690 1dbd c8d0 9dbd
000000a0: aff0 3b3d 6edd 85bd 44e7 0a3d c5c8 183e
000000b0: e3dd 7f3c dc62 49be a804 3a3d 08da bd3d
000000c0: 3ed0 1d3d 6333 0e3d 6e62 89bd 4b9c db3d
000000d0: 7df4 dcbd 6c1b a23d aab1 1e3d af45 d93d
000000e0: 6f0a dfbd 7958 2cbc 3045 733d e122 753d
000000f0: 0995 923d bdf9 68bd b0e2 793d 5177 d73d
00000100: d063 b03d fd03 033d 52f8 adba f53e 6f3c
00000110: b18d 883c 218c e73d 3cb3 bfbd 044a 05be
00000120: e189 a03d 56a4 2ebd e8db ff3d 3b9a 91bd
00000130: 17b9 423e 1ec0 223d 8283 1c3d 2c40 dd3c
00000140: 514d 2fbd 3238 80bc 0027 36bc 967f a73d
00000150: 6727 90bd 3270 ce3c 17e1 71bd 5748 f9bd
00000160: f863 26be ce3b a03d 78d7 0c3d 7b4e a0bd
00000170: 7ea9 3cbd 0198 4e3e 92f5 603e a680 7bbd
00000180: 19f5 653e 85d5 5ebd ff11 48bd a61e 72bd
00000190: f325 02bc 932d 833b e132 d6bc cc22 433a
000001a0: f371 66be 8166 3e3d a328 c4bd 652e 043d
000001b0: bad7 4bbc 7d1e 263d feab a13d 4170 e8bc
000001c0: ef07 523e ef1d 98be 41fa 303d de11 bb3d
000001d0: 70ae 273d 7ab8 293d 4efd 70bb 6ec9 43bd
000001e0: fb27 dfbc 4b4f 0bbd ba36 753e eb14 693d
000001f0: 434d 5b3d 858e bb3c 9a75 45be 101f d3bb
0.15631887 -0.06458455 -0.032077182 0.091996394 -0.24406774 0.02777939 0.07637269 0.22359343
-0.032182787 0.027122026 -0.0405029 0.08173563 -0.019981932 0.016840842 0.17246425 -0.0679896
-0.10952019 -0.008656665 0.083798125 0.038619213 0.060336262 -0.27027565 0.015774928 0.022099728
-0.060589463 -0.02626918 0.12036519 -0.03204148 0.14268662 0.025597883 0.17513017 -0.044336177
0.10516088 -0.034369227 0.14424457 0.09348648 0.030284038 0.093894884 -0.038468085 -0.077058375
0.04588383 -0.06536375 0.03391196 0.14920337 0.015616867 -0.19666618 0.045414597 0.09270102
0.038528673 0.034716975 -0.06708227 0.1072317 -0.1078882 0.079153866 0.038743652 0.10608994
-0.10890662 -0.01051914 0.059392154 0.059847716 0.071573325 -0.056878794 0.0610072 0.10520805
0.08612788 0.031986225 -0.0013272858 0.0146024125 0.016669126 0.11306024 -0.09360358 -0.13016516
0.07838798 -0.04263719 0.12493116 -0.07109495 0.19015919 0.039734 0.038211353 0.027008139
-0.042798344 -0.015651796 -0.011117697 0.08178632 -0.070387654 0.025199983 -0.059052553 -0.12172001
-0.16249073 0.07823907 0.034385175 -0.07827469 -0.046060078 0.20175172 0.21968678 -0.061401986
0.22456779 -0.054402847 -0.048845287 -0.05911126 -0.007943618 0.0040032356 -0.026147308 0.0007443845
-0.22504406 0.046484474 -0.09578063 0.032270808 -0.01244157 0.04055642 0.07894133 -0.02837384
0.20510839 -0.29710338 0.04320741 0.09134267 0.04093784 0.041435696 -0.0036772075 -0.04779952
-0.027240744 -0.034011167 0.23946658 0.056904715 0.05354048 0.022895107 -0.19283143 -0.006442912

fc2bn.running_mean f4 [128]
00000000: 8464 bd3d 0400 0000 3b91 533d 246a 1c3f
00000010: 4040 d33e 158c 4939 0400 0000 a72b 1c3d
00000020: 0400 0000 0400 0000 b47a 282d fa81 b03d
00000030: 9c3d 0b0b 8f1c ef3b 9183 8b3b a32f 7740
00000040: 73fb 8b3f 0400 0000 79ed 692d 0400 0000
00000050: 33b7 1234 dcc6 8a3f 0400 0000 1841 6b3e
00000060: 0400 0000 0400 0000 7fc1 c03f 0400 0000
00000070: 5a7b d13b 9a46 8a3e 2a2f 122d f044 f93b
00000080: 7034 953e f324 e03c d7cb 293f f744 c63e
00000090: 3658 7e3e 81eb 203e da85 243c 0400 0000
000000a0: d352 0b35 2a8e 573e 824a a83f 4ba1 0d3d
000000b0: a51c 9740 5589 183f f636 073e ec9e 9040
000000c0: 0400 0000 0400 0000 b758 9c3e 2384 003d
000000d0: 36cb e83e f446 683e 9e9d 653f e20f 083e
000000e0: 3203 023f 5a7f b03e c41e 513e d519 a23e
000000f0: 8166 903e 2028 3e3f 8197 ac3f 4959 b43d
00000100: c26c 8e3d 0400 0000 5a04 b13e 0400 0000
00000110: 0400 0000 14a8 0b2a 7b0c ce3b 02fb 013f
00000120: 07bb 262d bd1b 7e3d 6e11 1d3e 40d7 033d
00000130: 7041 c53e 0400 0000 0400 0000 d8d2 1c40
00000140: 0400 0000 d6ca 953f 0400 0000 1d92 9e40
00000150: 579c 363d a8a2 c93c fdd8 3040 8237 753f
00000160: 7886 2b3f 830e 823d e0d4 a13d 0400 0000
00000170: 0400 0000 1799 6e3e 58be 0635 0400 0000
00000180: e319 a33d 0400 0000 023c 9b22 0400 0000
00000190: f624 013f 9ee1 8d39 0400 0000 0400 0000
000001a0: 51c0 363f 488a 443f 8cd4 6139 66d3 0e38
000001b0: 92e1 eb3e 0400 0000 0400 0000 600f d33e
000001c0: d68f 573e 99ae 8e3d 0400 0000 0400 0000
000001d0: 57df e038 0400 0000 0400 0000 abf5 833a
000001e0: d817 d93e 9307 b13e 2b42 603c 0400 0000
000001f0: e5f7 f23b 0400 0000 6404 053f c282 b73b
0.092476875 6e-45 0.051652174 0.6109946 0.41259956 0.00019221038 6e-45 0.038127568
6e-45 6e-45 9.57694e-12 0.08618541 2.6816776e-32 0.0072971056 0.0042576273 3.8622825
1.0936111 6e-45 1.3297246e-11 6e-45 1.3663957e-07 1.0841937 6e-45 0.2297405
6e-45 6e-45 1.505905 6e-45 0.0063928785 0.2700699 8.309612e-12 0.007607095
0.2914157 0.027361369 0.6632666 0.3872449 0.24838337 0.15714838 0.010041678 6e-45
5.190206e-07 0.21050325 1.3147738 0.03457765 4.7222466 0.5958455 0.1320456 4.5193996
6e-45 6e-45 0.30536434 0.031376015 0.45467538 0.22683316 0.8969363 0.13287309
0.50786126 0.34472162 0.20421892 0.31660333 0.28203204 0.74279976 1.3483735 0.08806092
0.06954338 6e-45 0.34573632 6e-45 6e-45 1.2403994e-13 0.006288109 0.5077363
9.477536e-12 0.062038172 0.1533868 0.0321877 0.38526487 6e-45 6e-45 2.450369
6e-45 1.1702526 6e-45 4.955336 0.04458269 0.024613693 2.763244 0.95787823
0.6700206 0.06350424 0.07901931 6e-45 6e-45 0.23300587 5.0195877e-07 6e-45
0.07963922 6e-45 4.207637e-18 6e-45 0.5044702 0.00027061714 6e-45 6e-45
0.713872 0.767735 0.00021536852 3.405232e-05 0.46070534 6e-45 6e-45 0.41222668
0.21050963 0.069668956 6e-45 6e-45 0.000107227526 6e-45 6e-45 0.0010067722
0.42401004 0.3457609 0.013687651 6e-45 0.0074148052 6e-45 0.51959825 0.0056003043

fc2bn.running_var f4 [128]
00000000: 96cc ed3d 0400 0000 6712 ae3d e274 1440
00000010: 8c11 1a3f 5862 dc37 0400 0000 261d f03d
00000020: 0400 0000 0400 0000 00ba 012d 5dfe 683e
00000030: 8efe e209 45ff 963c 7d9c d33b 64e7 5940
00000040: b88b d03f 0400 0000 7117 7a2d 0400 0000
00000050: 87b5 0a33 0698 af3f 0400 0000 1f84 ff3e
00000060: 0400 0000 0400 0000 eaf7 0a40 0400 0000
00000070: fe2a fd3b 65ce 113f 5154 c32c 71f9 863c
00000080: 9be3 ed3e 6c7d 323d 6141 693f 14c7 023f
00000090: 6c29 a13e cb41 b53e 834d 723c 0400 0000
000000a0: 7756 0635 c70c a93e 29dd e63f 80d3 cf3d
000000b0: d16d 6440 8ca4 893f 21b4 923e 5473 ab40
000000c0: 0400 0000 0400 0000 7823 363f a5af ad3d
000000d0: 4612 4e3f 4928 e63e 48d5 a43f 4284 0b3e
000000e0: c75b a43f cd68 353f f0dd ce3e 3fda 173f
000000f0: 4455 c53e dab4 a93f 70bd 3f40 75f1 e03d
00000100: 8f7c 793e 0400 0000 9bda 043f 0400 0000
00000110: 0400 0000 344e 4829 976d 653c 5bb8 643f
00000120: 7389 662c 0bef a53d ad0e 073f 1656 b23d
00000130: 8c0d 363f 0400 0000 0400 0000 485d 0740
00000140: 0400 0000 37b6 e73f 0400 0000 689e 3640
00000150: bbbb 8c3d ad41 a63d 56e9 3e40 5293 d83f
00000160: 7b77 493f 9a72 043e eec9 bb3d 0400 0000
00000170: 0400 0000 8ce6 f13e e427 ce34 0400 0000
00000180: f7d0 753e 0400 0000 cc1c 9721 0400 0000
00000190: ee50 693f 7a69 9538 0400 0000 0400 0000
000001a0: 4417 7c3f 82ac ab3f 37cd ba39 e1d6 9f37
000001b0: 84a8 133f 0400 0000 0400 0000 f93e 583f
000001c0: 0cc7 a73e e3f8 623d 0400 0000 0400 0000
000001d0: f3f1 8f37 0400 0000 0400 0000 2d5f 033b
000001e0: be73 fd3e 65c4 343f 7311 073d 0400 0000
000001f0: 723e 813c 0400 0000 15d0 463f 2cc9 8c3c
0.11611287 6e-45 0.08499604 2.319634 0.60183024 2.6271839e-05 6e-45 0.117243096
6e-45 6e-45 7.374101e-12 0.22753282 5.4646903e-33 0.018432269 0.006457864 3.404748
1.6292639 6e-45 1.421606e-11 6e-45 3.2295727e-08 1.3718269 6e-45 0.49905488
6e-45 6e-45 2.1713815 6e-45 0.0077260723 0.5695556 5.5515943e-12 0.016476365
0.46462712 0.043576643 0.91115385 0.5108502 0.31476915 0.3540176 0.014788988 6e-45
5.0044713e-07 0.3301756 1.8036243 0.10147762 3.5692027 1.0753341 0.28653052 5.357828
6e-45 6e-45 0.7114787 0.08480767 0.80496633 0.4495261 1.2877588 0.13624671
1.2840508 0.7086304 0.404037 0.5931739 0.38541615 1.3258317 2.9959373 0.10983554
0.24363922 6e-45 0.51896065 6e-45 6e-45 4.447675e-14 0.014003179 0.89343804
3.2761265e-12 0.081022345 0.5275677 0.08707826 0.7111442 6e-45 6e-45 2.1150684
6e-45 1.8102483 6e-45 2.8534184 0.06871744 0.081179954 2.9829917 1.6919959
0.7869794 0.12934342 0.091693744 6e-45 6e-45 0.47246206 3.8399514e-07 6e-45
0.24005495 6e-45 1.023978e-18 6e-45 0.91139114 7.12452e-05 6e-45 6e-45
0.98473 1.341202 0.00035629582 1.9054338e-05 0.5767901 6e-45 6e-45 0.8447109
0.32769048 0.055413138 6e-45 6e-45 1.7159595e-05 6e-45 6e-45 0.0020045743
0.49502367 0.70612174 0.032975625 6e-45 0.015776847 6e-45 0.7766126 0.01718577

fc_out.weight f4 [4, 128]
00000000: e872 84be 1c49 bb3e 2502 8d3e 9307 62bf
00000010: 77b5 88bf 79de 4b3d e6fa a63e c74d 00be
00000020: 264c 94be 5606 d93d dffe 76be 1020 fcbd
00000030: 1ad5 473d 5188 033e d065 35be 3c40 5b3e
00000040: c6e7 6d3f 69e3 853d 6214 ba3e 99db 2e3e
00000050: f36f 12be cc55 9abe ffc6 173e 894e 04bf
00000060: 9f52 30be 0eb6 2cbe 575b adbf e2ad 1fbe
00000070: 0a52 bb3d eb4d 5c3f 6796 41bf 7a46 3c3e
00000080: 1b2b e4be 77e1 1d3f 5cc8 a7bd 03e0 2cbe
00000090: 3d0f 7abf 0419 6cbe 0a9b 153e 872e 60be
000000a0: 8d97 1f3e e3a6 1e3e cf38 0c3e dac7 e6bc
000000b0: be55 7ebe 36c3 a13e b9ad 66be 8003 19be
000000c0: 7249 133e de5d 123e ba00 3dbf cba1 86bd
000000d0: a163 f43f f961 933e d7df 073e f5ea 0ebe
000000e0: ac53 1cbe 8742 18be 04a4 c5be b753 fbbe
000000f0: dd37 b93b 47d3 853f 3e25 1c3e cf67 d9bd
00000100: cf0e 48bd 42e9 023e 32e8 dcbe 7a6f 503d
00000110: 0051 063e dd22 98be cb7c 45bf 7aa0 abbe
00000120: f60c 47bd c409 13be cab8 e33e d25a 52be
00000130: b5c5 95bf 9973 10be 37ae 533e 6713 113e
00000140: 9eab 0bbe 3a36 d6be 59ce 21be 6708 713d
00000150: 2e42 83be bcf3 97bd 6030 4ebe edd7 a3bd
00000160: 367d 84be 19eb 87be e228 37bf 842c 74be
00000170: 75f7 21be 66f7 f4be ae79 0abf 80e2 d9bc
00000180: f1a2 153c 5da5 33be 15c1 a5be ccad a6be
00000190: 9536 1d3f 9232 d1be 86e4 b5bd a871 0cbe
000001a0: 87cc 6a3f e61a 53bd 6abd 8b3d 5766 2a3e
000001b0: f310 4b3f 0ade 5abe a288 b13e b152 583e
000001c0: ee3e 283e 4bf3 383e b314 1a3e 2f08 15be
000001d0: d89f 143e 9d65 0a3e 35be 36be ffa4 d63b
000001e0: b160 eabe 16f1 7b3e 0df8 b13e 6e0e 573e
000001f0: a6f3 6dbd b18d 073e aa4d a7be c9e6 173d
00000200: c6ac c13e c011 023e 9aab c7be 34c1 f23e
00000210: 048d bbbe f994 3b3c 4116 303e 7d34 8f3d
00000220: bccc e33e 985d 30be dc2d 043e 4e1b 96be
00000230: 2955 0a3e 3a69 1dbe 6419 16bd 9c14 4bbe
00000240: 2733 a63e 8f35 8e3e 0cbb 84bc 97d3 57be
00000250: 0e69 6f3e 423e a4bf f276 6fbe 33a4 05bf
00000260: 90d6 4e3e eb1d c33e ccc1 6a3d 8674 613e
00000270: 70a5 7a3f 8dff c13e 9c08 bfbd 0163 3fbd
00000280: e0c3 66bf 4c19 18be 1018 843f 16ac 7c3f
00000290: 4a3e 03bf c8e0 2e3f e8f7 c63c 4540 a3bc
000002a0: 38de 17be ca77 683f dc41 f63d 6af7 803e
000002b0: 71ae 01bf 5535 13bf 6b87 8e3e b214 c0be
000002c0: 5d7b ecbc d6df 6cbe ec47 1fbf ab04 e8be
000002d0: 8007 90be cb10 513c 129c 77bf 2124 d3be
000002e0: c1d1 7ebf 6d34 143e 21c9 5fbd 444d a13e
000002f0: e5ed 063f 3524 3bbf e113 843e 862b 2ebf
00000300: 9c9c 883e a2d2 77be 5e7c 5fbe 9d13 7ebe
00000310: d19f 72be 906a ebbd c7fd 86be 7a0a 3fbe
00000320: bd4d 913e 7e7e 2fbe 7d07 043e 0bb8 9bbe
00000330: a144 e23e b0fc a53e 2518 33bd 4684 1cbf
00000340: 847b 673e 57a9 a1be 3fc2 09be 0da5 95bf
00000350: 3a5b 73bf 0b05 c53d 2299 eb3e b98e 923d
00000360: 3fe4 1dbf 226d e13e 79d7 85be 2e37 f63d
00000370: 6078 e2be 2ebe a13e 8617 b6be dd0d b43d
00000380: a1da 653e bc5d 80be ddcf 28bc 0595 8e3d
00000390: 6baa b0bd f76f 3abe a113 303e 9ac7 853e
000003a0: 72c0 cbbe 28b7 3b3f 42c6 9fbe c388 0a3f
000003b0: 64af 03bf bdbc 9b3e ac2b 68bd 6968 48be
000003c0: 1251 013f 6e4f 8dbe bda5 5f3e ec35 dc3e
000003d0: 4b50 323e f9ac 63be 0b45 03be 984e 69bf
000003e0: 97c6 313f 0ff2 aabe 077f 523e 4a50 cdbd
000003f0: 201b a73d 1f4a 74be a033 e73e 770f 7a3e
-0.25868917 0.36579216 0.275407 -0.8829281 -1.0680379 0.049772713 0.32613295 -0.1252967
-0.28964347 0.105969116 -0.24120663 -0.12310803 0.048787214 0.1284497 -0.1771462 0.21411222
0.92931783 0.06537516 0.36343676 0.17075957 -0.14300518 -0.30143583 0.14822005 -0.51682335
-0.17219017 -0.16866323 -1.35435 -0.15593675 0.09146507 0.86056393 -0.7562012 0.1838626
-0.44564137 0.6167216 -0.081925124 -0.16882329 -0.976795 -0.23056418 0.14609924 -0.21892749
0.15585156 0.1549335 0.13693546 -0.028171469 -0.24837396 0.31594247 -0.22527207 -0.14942741
0.14383486 0.1429362 -0.73829234 -0.06573828 1.9092904 0.28785685 0.13268982 -0.13956816
-0.15266293 -0.14869128 -0.38601696 -0.49087307 0.0056524114 1.0455102 0.15248582 -0.10615503
-0.048842248 0.12784293 -0.431459 0.050887562 0.13116837 -0.297141 -0.77143544 -0.3352087
-0.048596345 -0.14359194 0.4447692 -0.20542458 -1.170096 -0.14106597 0.20671926 0.14167558
-0.13639686 -0.41838247 -0.15801372 0.058845904 -0.2563643 -0.074195355 -0.20135641 -0.08000169
-0.25876778 -0.26546553 -0.7154676 -0.23845106 -0.15817054 -0.47845 -0.5409192 -0.026597261
0.009133087 -0.1754355 -0.32373872 -0.32554471 0.6141141 -0.40858895 -0.08881478 -0.13715231
0.91718334 -0.051539324 0.06823237 0.16640602 0.7932274 -0.21373764 0.34674555 0.21125294
0.16430256 0.18061559 0.15046959 -0.14553903 0.145141 0.13515325 -0.17845996 0.006550431
-0.45776895 0.24603686 0.3475956 0.21001598 -0.05809369 0.13237645 -0.3267644 0.03708533
0.37827128 0.12702084 -0.3899811 0.47413027 -0.36631024 0.011449092 0.17195989 0.06992433
0.44492137 -0.17223203 0.12908119 -0.29317707 0.13509049 -0.15372172 -0.036645308 -0.1983208
0.324609 0.27775237 -0.016202472 -0.21076809 0.23379919 -1.28315 -0.23385218 -0.52203673
0.20199037 0.38108763 0.057313725 0.22017106 0.9790869 0.37890282 -0.09327814 -0.046725277
-0.9014263 -0.148534 1.0319843 0.9870008 -0.5126692 0.6831174 0.024288133 -0.019928107
-0.14830863 0.90807784 0.120242804 0.25188762 -0.506568 -0.57503253 0.2783769 -0.3751579
-0.028867418 -0.23132262 -0.6221912 -0.4531606 -0.28130722 0.012760351 -0.9672252 -0.41238502
-0.9953881 0.14473124 -0.05463517 0.31504261 0.5270675 -0.7310212 0.25796416 -0.6803516
0.26681983 -0.24201444 -0.21824786 -0.2481217 -0.23693778 -0.114949346 -0.26365492 -0.1865634
0.28379622 -0.17138097 0.12893482 -0.3041385 0.44192985 0.32419348 -0.043724198 -0.61139333
0.22605711 -0.3157451 -0.13453005 -1.1690995 -0.95061076 0.096201025 0.4601527 0.071561284
-0.616764 0.44028574 -0.26140955 0.120222434 -0.44232464 0.31590408 -0.35564822 0.08791707
0.22446682 -0.25071514 -0.010303465 0.06962017 -0.08626255 -0.18206774 0.17194988 0.26128846
-0.39795262 0.7332635 -0.31205946 0.5411493 -0.514395 0.30417433 -0.056682274 -0.1957108
0.5051433 -0.27599663 0.21840568 0.4300989 0.17413442 -0.22233953 -0.12819307 -0.9113555
0.6944365 -0.333878 0.2055627 -0.100250795 0.081594706 -0.238564 0.45156574 0.24419962

fc_out.bias f4 [4]
00000000: b7eb 503e aa90 823e 4da6 c5bc d4cc f73d
0.20402418 0.25500995 -0.02412715 0.12099615
