checkpoint_critic.pth (torch_old, 89537 bytes, 9 tensors)

fc1.weight f4 [128, 33]
00000000: 931f 22be 9d84 6cbf 10ac 083d 12f9 373f
00000010: 20a5 57be 61df 61bd 4051 9dbc a779 9b3e
00000020: 9b85 123d 12e1 c63d d8de 423c 1ec9 74bd
00000030: 1145 32be a6a3 4f3d e248 223e 0009 0b3a
00000040: 0c3e dcbc d4aa 163e 986c a43d 4263 80be
00000050: 9bc9 30be 2785 4abd dfa2 28bf 2d72 a8bc
00000060: fe67 5c3a 2b43 33bd 26f4 92bc 0ea0 39be
00000070: 7573 b73d 703e 2cbd d525 8d3e f93b a63d
00000080: eef4 99bd b222 80bd fb13 6c3e 24c9 4cbe
00000090: 7c58 ac3c 98c1 9fbe f32c 21be da6d d13d
000000a0: ba27 dabd 8401 bf3d abfc 8dbe d521 4bbe
000000b0: 12c2 22be c669 9b3d f29d 9b3d 0802 b9bd
000000c0: 856c c7bc e325 8d3e 5302 66bd 327e 343e
000000d0: 167a 60bc 5553 b8bd 47e2 95be ed2e 243e
000000e0: b78c bf3e 22f9 843d 9709 183d 4ee6 b7bc
000000f0: 27ba 983e 4da4 843e a08b 10bd f365 80be
00000100: 90d4 46bd 6981 07bf 6e19 09be 9bcc aa3e
00000110: eec2 1f3e c9dd a3be 16ec 23be 3392 643e
00000120: 7d35 0c3f 9022 d13d 45b8 30bd d04f c63c
00000130: 9893 9abc 1f8f b33d 282c 18bd a2a2 d6be
00000140: e2ed 1c3e abce 63bd 9889 353e 128f 7bbd
00000150: 9551 45bf 0dd2 b13e 6ba2 90bd b66b 353d
00000160: c379 a6bc 9a39 11bd 2435 933d 10d4 053c
00000170: c604 82ba a52b 303e 5be0 debd 20ab 673c
00000180: a6d3 f6bd 3653 4e3d 3cd6 44be ce2f df3e
00000190: 34b7 6c3e 560c 8c3d e10f 363d e270 40bd
000001a0: f9b7 48bb 607c 13be af17 ed3c b62c b23a
000001b0: 1ca0 5bbb 3ef2 753c 0cd0 de3c d7fc f1bb
000001c0: 74cd d1be 4897 f0bd 18e7 bebd 2bb0 04bc
000001d0: d0fd f33d 3c87 07be 86b7 063d 99e8 29bd
000001e0: 2f07 cf3b 54e6 15bc 2c3b 29bd a32b 7bbc
000001f0: 9f07 153d 433c 5f3e 6a7f 433c 93ed d63d
00000200: 90c8 30bc 9518 cfbb 0aef 503d 779f d5be
00000210: 3b82 c1bc 41d3 cb3d d79e aa3c 9247 a3bc
00000220: 122d 24be ee3b c03e 4d18 7d3d 7c7c 79b8
00000230: 47f8 1abd 47f4 9b3c 1e6e 55bc a3a6 263b
00000240: 341c b23a c10f 84bd 373f 22bc 73ad 083d
00000250: 3b5d 2f3d b78e c03d 606f 473d ec84 c33b
00000260: fc09 2c3c 2d87 573c f17d 923b bbbb 80bc
00000270: c3c1 f638 2701 f0bb 6dba df3d 18b4 e83d
00000280: 0dcc 20be 0c9a 66bd e477 81bd d605 5b3d
00000290: 47d2 debf 767b 273e 15a4 69be c3dd 30be
000002a0: 671a b7bd 6d68 003e 00b0 91be f1ab a8be
000002b0: b6a0 293e eb96 e13d d2fb b83c 8601 1abd
000002c0: f523 6e3b 7dff 6c3c 67b6 22be 5071 bb3d
000002d0: 0e76 e13d ac46 b53e 17ef adbe 32be 3f3d
000002e0: 50f2 98be 5a0b 203d 02f8 ac3d 3191 023d
000002f0: 32be cfbd 945d 62bc 00f2 38bd a4d1 893a
00000300: 0a5c 0e3e bc51 b33d 6383 9cbd 1aa1 3bbe
00000310: 0ee1 3b3d 2b15 aa3f 49ce 9b3e e712 aa3e
00000320: c69e 1dbb a21a c7bd 41ac a53e f243 46be
00000330: f74b a9bc 7f06 f13d c344 9abe 2536 923d
00000340: 5b84 2b3e aef6 23be bc9c 90bd 8f82 6b3e
00000350: c2d0 efbb 8eda 193e ebc4 073f ad9c 023e
00000360: f794 3dbc 66e0 1c3f 9dae 60bd bceb d2bd
00000370: dc3a e2bd 2d10 cabd ec8a 12be 985f 3cbe
00000380: 0d9c 2a3e a7e9 773e a59c 2bbe 7509 0fbd
00000390: be9b 0dbe 2a5a 2c3d d7c3 fdbd 9fa4 773e
000003a0: c915 833e 9f70 993e 799a 9dbd 9450 f8bc
000003b0: 5224 8b3e ce83 4dbc f082 30bd bd1b 9ebd
000003c0: 5fc5 cf3d 1b7c 763c d606 8a3d 6b9f 9aba
000003d0: 6d07 6abe f630 adbd 8ceb bfbe f767 5bbe
000003e0: 2f96 c93d 40ff 61be d729 2fbd 8c23 213d
000003f0: 94b4 98bc 5bf0 aebd 3322 a7bd d360 62bd
-0.15832357 -0.9238985 0.033367217 0.71864426 -0.21059084 -0.05514467 -0.019203782 0.3036625
0.035771947 0.097108975 0.01189395 -0.059762113 -0.17409159 0.050693177 0.15848115 0.00053037703
-0.026885055 0.14713603 0.08028525 -0.25075728 -0.17264406 -0.04944339 -0.6587352 -0.020562256
0.000840783 -0.04376523 -0.017938685 -0.18127462 0.089575686 -0.042051733 0.27567926 0.081169076
-0.0751742 -0.062566176 0.23054497 -0.19998604 0.021038286 -0.31202388 -0.15739803 0.10226031
-0.106521085 0.09326461 -0.27731833 -0.19837125 -0.15894344 0.07588534 0.07598485 -0.090335906
-0.024343738 0.27567968 -0.05615456 0.17626265 -0.013700983 -0.09000269 -0.29274198 0.16033526
0.37412044 0.06492831 0.03711852 -0.022448685 0.29829523 0.25906602 -0.035289407 -0.2507778
-0.04854256 -0.5293184 -0.13388607 0.33359227 0.15601704 -0.32005146 -0.16008028 0.22321396
0.54769117 0.102116704 -0.043144483 0.02420798 -0.018869206 0.087675326 -0.037151486 -0.41920954
0.1532512 -0.055617016 0.17728269 -0.06141574 -0.7707761 0.3473057 -0.07062229 0.044292174
-0.020321732 -0.035455324 0.0718787 0.008168235 -0.0009919635 0.17204149 -0.10882636 0.0141399205
-0.120520875 0.050372325 -0.19222349 0.4359116 0.23116761 0.068382904 0.044448737 -0.046982653
-0.0030627234 -0.14402914 0.028941957 0.0013593647 -0.003351218 0.015011368 0.027198814 -0.007384877
-0.4097706 -0.117476046 -0.093214214 -0.008098642 0.11913645 -0.13235182 0.032889865 -0.041481588
0.006317995 -0.009149153 -0.041316196 -0.015330228 0.03638422 0.21800332 0.011932233 0.104945324
-0.010790005 -0.006320069 0.051009215 -0.41723225 -0.023621669 0.09952403 0.020827694 -0.019931588
-0.16032818 0.37545723 0.061790753 -5.948216e-05 -0.037834432 0.019037379 -0.013026742 0.0025428913
0.0013588727 -0.06448317 -0.009902767 0.03336854 0.04281352 0.09402221 0.0486902 0.0059667733
0.010500427 0.013154787 0.00447058 -0.015714517 0.00011766285 -0.007324356 0.1092423 0.11362475
-0.15702839 -0.056299254 -0.063216954 0.053472362 -1.7407922 0.1635569 -0.22816499 -0.17272095
-0.08940583 0.12539835 -0.2845459 -0.3294368 0.16565213 0.110151134 0.022581015 -0.03759911
0.003633735 0.01446521 -0.15889893 0.09152472 0.11008845 0.3540548 -0.33971474 0.046812244
-0.2987237 0.039073326 0.08445741 0.031876747 -0.10143699 -0.013816256 -0.045152664 0.0010514748
0.13902298 0.08755824 -0.076422475 -0.18323174 0.045868926 1.328771 0.3043082 0.33217546
-0.0024050935 -0.09721877 0.32357982 -0.19361857 -0.020666106 0.11768817 -0.30130586 0.071392335
0.16749708 -0.1601207 -0.07061145 0.22999023 -0.007318587 0.15024778 0.5303485 0.1275508
-0.0115711605 0.61279905 -0.054854024 -0.10298869 -0.11046383 -0.098663665 -0.14310807 -0.18395841
0.16661091 0.24210225 -0.16758974 -0.03492113 -0.13828942 0.042078175 -0.12390869 0.24183892
0.25602558 0.29968736 -0.07695479 -0.03031186 0.27176148 -0.012543632 -0.04309362 -0.077201344
0.101450674 0.0150442375 0.06739585 -0.0011796778 -0.22854395 -0.08456604 -0.37484396 -0.21426378
0.09843098 -0.22070026 -0.04276451 0.03934054 -0.018640794 -0.08541938 -0.0816082 -0.05526812

fc1.bias f4 [128]
00000000: 1696 a43e a805 4abe 0c8c 8ebd d4dc 983d
00000010: 51fa 0f3c 57fa f2ba 15a3 1abe e5c9 f63d
00000020: 36e6 47bd 4415 92be fba6 06bd 6fbd 3dbd
00000030: 8ca7 9c3e 5c72 323e 473c fcbd 9328 33bc
00000040: 359d 88be 44d3 d83d bb73 f1bc 8dcd a43d
00000050: 8931 5cbe 0c3b 9fbe 2e24 92be ddd0 ebbd
00000060: b0be 85be 8e8e 93bb 2ebc 6dbe bd78 9abe
00000070: a30f 803e 5e2f 90be 3aaf 4bbd 74ba 363e
00000080: 67b0 e0bb e1e2 89be ca46 533d 9452 133e
00000090: 9b31 88be 5c89 27be a760 5bbd c009 c7bd
000000a0: 3437 2abe 3258 11be c81a efbc 21c4 1b3e
000000b0: b711 0ebe 00fa 97be 7d50 c1bd cffc 41be
000000c0: d5d5 94bd a0cb 023e 45b2 a6be 3099 a9be
000000d0: 57e6 bc3d fa39 063e a915 9ebd c719 6dbd
000000e0: ef6a bfbd 86ed 06be 294a 973e 375a bd3d
000000f0: e957 e6be fb1d 253c c077 c63c a284 4fbe
00000100: 10e3 33be 75f2 b0bc 827b 46be 2e1e 9a3d
00000110: bbfd 39be 389c d9bd f74a e8bc 18eb 2ebe
00000120: 7c84 743d c139 5abe 7036 ed3d a461 d83d
00000130: 5b6d 5ebd c122 b5be fe1f c73d b54b d93d
00000140: 57a0 96be 9ac7 26be dfd2 70be 458d fd3d
00000150: 124a e63d 6a13 5fbe b78e acbe 1c8c 64be
00000160: 2ce4 0cbe d076 b63c 8bb5 7fbe 3860 dbbd
00000170: c0b7 81bc 7595 74be d159 56be f0f5 943e
00000180: f65c 16be 887f 013d 7155 12be 77c7 00be
00000190: b0df 04bf 5fa0 24be f3c0 1fbd 010e be3e
000001a0: 6f10 37be 692b cbbc a995 53be 515d 10be
000001b0: d1d3 433e a719 85be b827 f8bd 64dc e1bd
000001c0: f90e 303d 639e 7bbd 4129 d53c f2a0 1c3e
000001d0: 227a e2bd 118e 93be 8992 9c3d fcc0 88be
000001e0: ec2f 89be 95b1 b53d 6a71 0dbe 8606 d63d
000001f0: 8f4a 29be af23 fb3d cc3f ab3e 02a0 ad3c
0.32145756 -0.1972872 -0.069603056 0.074639946 0.008787707 -0.0018537742 -0.15101273 0.12050227
-0.04880353 -0.2853185 -0.03287409 -0.046323236 0.30596578 0.17426437 -0.123161845 -0.010934967
-0.2668244 0.10587171 -0.02947413 0.08047018 -0.21503271 -0.31099737 -0.28543228 -0.11514447
-0.26122046 -0.004503078 -0.23216316 -0.3017024 0.2501193 -0.28161138 -0.049727656 0.17844564
-0.0068569663 -0.26930907 0.05158118 0.1438697 -0.26600346 -0.16360992 -0.05355897 -0.097186565
-0.16622621 -0.141938 -0.029187575 0.15211536 -0.13873945 -0.29682922 -0.0943918 -0.18944095
-0.07267348 0.1277299 -0.32557884 -0.33124685 0.09223621 0.13108054 -0.07718975 -0.05788591
-0.09346568 -0.13176546 0.29548767 0.09245723 -0.44988945 0.010077949 0.024227023 -0.20265439
-0.17567086 -0.021599988 -0.19383052 0.075252876 -0.18163197 -0.106254995 -0.028356059 -0.17081869
0.05969666 -0.21311094 0.11582649 0.105654985 -0.05430351 -0.35378078 0.09722899 0.10610143
-0.29419205 -0.1628708 -0.23517941 0.12380461 0.112445965 -0.2178475 -0.33702633 -0.22319072
-0.13758916 0.022273451 -0.24971597 -0.10711712 -0.01583469 -0.23885138 -0.209327 0.29093885
-0.146839 0.031615764 -0.14290406 -0.1257609 -0.5190382 -0.16076802 -0.03900237 0.3712006
-0.17877363 -0.024800973 -0.2066256 -0.14098097 0.1912377 -0.25996134 -0.12116951 -0.11028364
0.04298303 -0.061430346 0.026020648 0.15295771 -0.11058451 -0.28819326 0.07645137 -0.26709735
-0.26794374 0.08871762 -0.13812795 0.10450463 -0.16532348 0.122626655 0.3344711 0.021194462

fc1bn.weight f4 [128]
00000000: bb1e 6c3d 2d26 df3d ff0c 813e 8518 0d3f
00000010: 9718 3d3f 9be6 db3e b0a7 623b 8e28 dd3e
00000020: db4a a13e c838 af3e 0e75 d33e 9f4d 5b3e
00000030: 9046 243e 7e27 453c 213f cd3e 1e8e 1e3e
00000040: a5c5 b03e 4e56 6f3e 48aa 1e3e 36d2 073e
00000050: c6a2 573d fa66 573d 5f69 743c 93bf 5c3e
00000060: 4921 173e b689 753e 899d 273e 011c e93e
00000070: 9349 cebb a8c8 aa3d 67a5 a43e c4e4 4c3f
00000080: 4ec9 703e e669 b83c 63d9 aa3d 3b5c f03e
00000090: b2b0 6f3e 195a 6e3d 3948 5a3c e2e3 c73d
000000a0: 60f0 a53e 8172 893e 957e c13e ec1b b23d
000000b0: c021 6b3d 223e 243d c3e3 e73d ff42 883e
000000c0: 04bc 323e 841b 083f c968 b13e f1da 903e
000000d0: 5906 8c3e 3bcd b33e 9a6f 123e c28e 1c3f
000000e0: a2d1 843e 0ede 783e e8cd 893d 449c c83e
000000f0: b98b a73c e939 d33e a090 0a3e 8a8f e33d
00000100: 9510 073e ae55 9a3e 93cd 133f 3b65 533e
00000110: 6c3b 2e3e ddee 073e a6ba 4e3e e733 463e
00000120: e611 323e fa3b 253e 5e53 ca3e ff6c 123d
00000130: 4512 eb3d 464f 523e 5f9b 213e a2d3 113f
00000140: 87af 143e f638 763d e69d 883d ab9d 663e
00000150: 2cb2 053b 6f13 813e 67e2 fe3d 35a5 e33d
00000160: 28d7 5f3e 087d 6d3e ac0e 4b3f 5fb3 2a3e
00000170: bc96 193e 2058 7b3e 7d0d e73c 9307 c53e
00000180: 6d0e 013f 0830 713e 85d1 563e f10e 773e
00000190: f1ae 083d e0eb 673e 7c12 853f 8caa b23e
000001a0: 6d07 a43e 17c3 3f3f c8ec 073e c5b9 873e
000001b0: 1c50 da3e 7cd9 4f3e db93 843c 0953 593d
000001c0: e720 983e 3d18 ed3e a09c b13e ae20 d93e
000001d0: 60b5 0b3e 3342 3c3e 2800 2f3f 22cb 3d3f
000001e0: adc8 653e e805 283e 221c b13d a876 253f
000001f0: 958e 2e3f 470b b33c 5d98 4c3e aa7e 77be
0.057646494 0.10895953 0.25205228 0.5511554 0.73865646 0.42949376 0.0034584813 0.43195003
0.31502423 0.34223008 0.41300243 0.21416329 0.16042542 0.012033341 0.40087226 0.15483901
0.3452579 0.23372766 0.15494645 0.13263783 0.052645467 0.05258844 0.014917701 0.21557455
0.14758791 0.23978314 0.16368689 0.45529178 -0.006295392 0.083390534 0.32157442 0.8003657
0.23514292 0.022511434 0.083422445 0.46945366 0.23407248 0.058191393 0.013322883 0.09760262
0.32409954 0.26845172 0.37791887 0.08696732 0.057405233 0.040098317 0.11322739 0.26613614
0.17454535 0.53166986 0.34650257 0.2829204 0.27348593 0.35117516 0.14300385 0.6115533
0.25941187 0.24303457 0.067287266 0.3918172 0.020452367 0.4125512 0.13531733 0.11111362
0.1318992 0.30143493 0.57735556 0.20644085 0.17014855 0.13274713 0.20188388 0.19355737
0.1738964 0.1613616 0.3951673 0.035748478 0.11478094 0.20538053 0.15781926 0.5696355
0.14520083 0.060112916 0.06670742 0.22521083 0.0020400388 0.2521014 0.124455266 0.11115495
0.2185942 0.23192227 0.7931926 0.16669987 0.14998907 0.24545336 0.028204674 0.3848234
0.50412637 0.23553479 0.20978363 0.24126793 0.033369962 0.22648573 1.0396266 0.34895742
0.32036915 0.7490706 0.13273919 0.26508918 0.42639244 0.20297807 0.016183784 0.053057704
0.29712602 0.46307555 0.34689808 0.42407745 0.13643408 0.18384628 0.68359613 0.7413808
0.22439833 0.16408503 0.08647944 0.6463418 0.6818631 0.021855963 0.19979997 -0.24169412

fc1bn.bias f4 [128]
00000000: 7157 003e 3e62 3f3d ffdd 213d b4a9 50be
00000010: 5e8b 253d 36ad 88bb 977e 9e3e e2ea 55be
00000020: 8558 7ebe e265 353e 702b c0bd e461 ddbd
00000030: 1e27 50be 9862 bc3e 4c01 493e 3077 27bc
00000040: 5069 a2bd 9f69 86be d98c f9bd 8c1a 2abc
00000050: 799f 32be 08a3 60be 54fb 583e 8a59 5ebe
00000060: b5d3 45bb 9235 1b3e 1b72 443e ee2a cb3d
00000070: a644 d0be 5d77 64bc 0b77 0abe 98ac 51be
00000080: b70c 393e 8c75 91be 5537 fabd ba1a 5ebe
00000090: c2d0 07bd f3db 14be 30c4 c4be 0626 743e
000000a0: 6a7e 1b3d 67b3 a6bd 594a 053e e34a 88be
000000b0: ca53 6d3c dd05 1cbd 54fb 73bd 2478 80be
000000c0: 01dd a83d 37c9 46be f905 4f3d b4ae 6bbd
000000d0: 97dc 0e3e 8f68 f9bd 5667 ff3d 951a 08be
000000e0: 8801 833e ea40 20bd 5fb5 a1be 79d1 55bc
000000f0: d533 c8be 41e5 d83c 5952 b8ba 7e3c e9ba
00000100: 764f 433d e5c3 5fbe 2a93 19be 5b7d 333d
00000110: 59a7 a6be faa0 eb3d 4a51 35bb e0bb 80bd
00000120: 2a1f 483e 4be6 babd 6681 bc3c 9c72 8f3e
00000130: 0d40 b3bb d184 8fbc 8957 c03c 714b 41bd
00000140: 6793 8b3e 32cd 0ebe 1b1a a0bd 5658 963d
00000150: b3e3 d6be 7baa 733a 9612 96bc ba23 b83d
00000160: cf8c 14bd c3ad 373e d57c 0d3d 6978 de3d
00000170: 1230 9a3e 9da1 43be 8cfd 57be 5cea 373e
00000180: 827b 1fbe 5dfa 623e 5a7b 98be 64a8 cebd
00000190: 0e88 41be 3063 b8bd 4c80 9b3c cf6a 7d3b
000001a0: bb2f 84be 5586 493e 5a61 8cbc 106c 4b3e
000001b0: f702 9c3e 7ee6 f4bd 6a12 b43e 3400 5ebe
000001c0: ae60 0abd ecd2 1fbe 4fa1 4abe ba7f 54be
000001d0: d9b0 a7bd 6892 6f3d eb6d f9bc 7cb0 193e
000001e0: 6568 0b3e f98d 44be a2c7 59bc 5343 b8bd
000001f0: 05b8 493d 3f87 99be efbf f53d deed 0bbe
0.12533356 0.04672455 0.039518353 -0.20377237 0.040416114 -0.004171039 0.30955955 -0.20890382
-0.24838455 0.17714646 -0.09383285 -0.10809687 -0.20327422 0.3679397 0.19629401 -0.010221288
-0.07930243 -0.26252457 -0.12185068 -0.010382306 -0.17443646 -0.21937191 0.21189624 -0.21713844
-0.0030186002 0.15157154 0.19184153 0.099202976 -0.40677375 -0.013944474 -0.13521974 -0.20475996
0.18071257 -0.28409994 -0.12217585 -0.21689883 -0.03315807 -0.14537029 -0.3843093 0.2384263
0.037962355 -0.08139687 0.13016643 -0.26619634 0.014485309 -0.03809153 -0.059565857 -0.2509166
0.08245278 -0.19412695 0.050542805 -0.057539657 0.13951336 -0.12178146 0.12470882 -0.1329139
0.25587106 -0.039124407 -0.31583688 -0.01305043 -0.39102045 0.026476504 -0.0014062627 -0.0017794517
0.0476832 -0.21852072 -0.14997545 0.04382072 -0.3254955 0.11505313 -0.002766686 -0.06285834
0.19543138 -0.09125956 0.02301092 0.28017128 -0.005470282 -0.017519386 0.02347924 -0.047191087
0.27260897 -0.13945463 -0.07817479 0.073410675 -0.41970596 0.0009295118 -0.01831941 0.08991189
-0.036267098 0.17937379 0.034542877 0.1086281 0.301148 -0.1910462 -0.21092814 0.17960495
-0.15574458 0.22165819 -0.2978161 -0.10090712 -0.18899557 -0.090032935 0.018982075 0.00386684
-0.25817665 0.1968015 -0.017136265 0.19865441 0.30471012 -0.119580254 0.351703 -0.21679765
-0.033783607 -0.15607804 -0.19788097 -0.20751849 -0.08188028 0.058489233 -0.03044792 0.1500873
0.13614042 -0.19194783 -0.013292225 -0.08997216 0.04924776 -0.29985997 0.11999499 -0.13664958

fc1bn.running_mean f4 [128]
00000000: bac3 6f40 95eb f93d 6879 d73d db20 343e
00000010: 7c5b b43e ae6b d53e 5bfe c83e 38fa cb3d
00000020: 469f 3b3e bd05 b53e b115 153e 25b8 943f
00000030: 3565 313e e759 e13f a3f5 0c3f a597 5c3e
00000040: 0795 7f3e 0a33 df3f 0825 023e 86d4 e43d
00000050: f166 193f a3b7 773f cd21 803e e8a1 003f
00000060: 9f3b 1438 47a1 2f3f 5791 463f e96a 263e
00000070: 72f9 2440 b15b e53d eb0e b03e 1e24 a33e
00000080: e3f4 303f 61a8 2a3f 1eab 1a3e 0636 fd3d
00000090: 4b24 ce3e 93f3 d73b e16d e83d 1268 983e
000000a0: 74b8 523f 3a0b 7f3e 8718 283f f7bb 9f3f
000000b0: 2f3d f83d 6f01 6a37 e64e be3a 73d5 7c3e
000000c0: 2d51 a03f 69b2 dc3e 616b d43e 3e71 b73d
000000d0: 8acd 033f 834e 1e3f e200 2f3e 70cf 1c3e
000000e0: 6ae3 0440 81c6 233e 7add 1a3e 81cb b73e
000000f0: 62e3 db3d 43b7 9b3e de17 a03f acd3 2a3f
00000100: f60d 8b3e b582 a63d 009b b43d 6255 d93e
00000110: 8a3e 9b3e a4f9 533e 79de ca3d a632 283f
00000120: c2f2 af3f 1aff 1c3e 3f31 ba3e 7557 0b40
00000130: da6d 413e 000a 5c3e cd05 323e 440c 883e
00000140: 453f ea3d 7116 3e3e cbd3 5f3e 9a27 4640
00000150: 37e0 db3e 067b 8e3e a31e 933e 456f a33e
00000160: 3880 633e aa2e 7e3f 87a7 2f3e b4b9 0d3f
00000170: 3efd fc3f 1f49 153f d3cf 453b acef 223f
00000180: 36c1 443e 30f4 9b3f 9232 c43d a3e0 cf3d
00000190: 907f b539 aeb7 b13d 93c5 f03e 3c29 c13d
000001a0: 898f 573e 0b1a 1a3f 8413 0d37 4176 f73e
000001b0: b7a5 643f 1058 6d3e 00c9 a53e bfce 4b3f
000001c0: 9d60 5c3d 4178 cb3e 7963 263e 7903 313e
000001d0: 3fe5 813e 1999 833e 1ce1 113f 9575 523e
000001e0: 6674 363e 95a3 a33f 2e5d ed3e a5c0 f63e
000001f0: 227e 303f 6ad0 643f 4995 f73e 749e 6f3e
3.7463212 0.12203137 0.10521203 0.17590658 0.35226047 0.41683716 0.39256558 0.09959835
0.18322477 0.3535594 0.14559056 1.1618696 0.17323764 1.7605561 0.5506231 0.21542223
0.24959193 1.7437451 0.12709439 0.11173348 0.599227 0.9676458 0.25025788 0.5024705
3.5341476e-05 0.68605465 0.7756552 0.1625172 2.577725 0.111991294 0.34386382 0.31863493
0.6912367 0.66663176 0.15104339 0.1236382 0.40262064 0.0065903156 0.11349083 0.297669
0.82312703 0.24906626 0.65662426 1.2479237 0.12121045 1.3947821e-05 0.0014519363 0.246908
1.2524773 0.43104866 0.41488174 0.08957146 0.514855 0.6183855 0.1709018 0.15313506
2.0763803 0.15993692 0.15123549 0.3589745 0.10736729 0.30413255 1.2507284 0.66729236
0.2715909 0.08130399 0.088186264 0.42447954 0.3032115 0.20700699 0.099057145 0.65702283
1.3745959 0.15331689 0.36365697 2.177213 0.18889561 0.2148819 0.17385025 0.26571858
0.11437849 0.18563248 0.21858136 3.096167 0.429445 0.27828234 0.2873431 0.3192083
0.2221688 0.99289954 0.1715375 0.55361485 1.9764783 0.583147 0.0030183687 0.6364696
0.19214329 1.2183895 0.09579958 0.10150268 0.00034618052 0.08677612 0.47025737 0.09431693
0.21050848 0.6019599 8.408799e-06 0.48332408 0.8931536 0.23178124 0.32379913 0.79612345
0.053803075 0.39740184 0.16248883 0.17286481 0.25370213 0.25702742 0.56984115 0.20552666
0.1781784 1.2784296 0.46360153 0.4819385 0.68942463 0.89380515 0.48356083 0.23400289

fc1bn.running_var f4 [128]
00000000: 54a9 873f a175 e43d 3c6b b93d fe6e cb3d
00000010: 1388 ac3e 0007 813e 8837 133f 5417 343d
00000020: d64b 0e3e 25f2 ab3e 8406 d73d e75f 933f
00000030: fee8 ff3d 0d21 5540 cf4f 243f d647 443e
00000040: ec9d 3c3e 6902 2540 ca5a 133e 2985 c03d
00000050: ce8e 8a3f a97b 0e40 e0a3 973e 8c23 1a3f
00000060: 9add a238 af2e 683f 4fd8 c03f a194 003e
00000070: 3393 f840 73ea df3d 058d 9b3e 4b7e 713e
00000080: 9e8e 543f a7c2 8f3f 3217 f13d 5afe b53d
00000090: 3357 c63e fdf5 003c c01b 123e f639 cc3e
000000a0: 05c4 3f3f d2f9 643e 4b78 0d3f a3e4 2440
000000b0: e4ea fb3d 68b3 a537 e44f 383b 5a58 3e3e
000000c0: 2dbf 0940 06eb c83e 79bd ff3e 5099 683d
000000d0: 095b 453f 5627 2e3f fa79 833e 884a 0d3e
000000e0: d7d7 a940 e4d8 0e3e cefd 133e b40e a03e
000000f0: 0908 c53d 312d 943e 4d93 883f 5053 5c3f
00000100: 5ad3 e53e d594 343d 364d 6e3d ac78 4e3f
00000110: 4955 ce3e 53d3 313e fc9e 993d 9567 2b3f
00000120: 5076 9d3f 490a b83d 9b5b b43e 4b70 1c40
00000130: 9b10 473e d73c 113e de1d 773e 69c1 6a3e
00000140: c365 003e 700c 373e 709b 713e f811 393f
00000150: 00c3 0a3f 1d0d a63e f274 bd3e 1493 d93e
00000160: a044 a73e f5c9 ea3f 6ed8 e43d c5c3 dd3e
00000170: a18d a140 d1a7 9e3f a9a4 fe3b 8932 2f3f
00000180: 2afb 093e 65d6 0640 bc8c 873d a41e 853d
00000190: 80ec 8039 9edb 833d 657a c23e 6855 633d
000001a0: 9cd7 4e3e 297e 183f 43e4 2537 81ac 353f
000001b0: dba7 233e 8a03 243e ed86 3b3f 9982 843f
000001c0: 3900 0b3d abb6 a83e 7c72 d83d 9fc7 ae3d
000001d0: 14f7 aa3e 634d c33e 5694 1a3f 2dcd 183e
000001e0: ae6b 6a3e b5c3 2b40 dcfb 2e3f 5bb8 f43e
000001f0: 54f9 0e3f cb7f aa3f b541 883e 3130 2c3e
1.059855 0.111552484 0.090536565 0.099332795 0.33697566 0.25200653 0.5750661 0.04396756
0.13896117 0.3358318 0.1049929 1.1513642 0.124956116 3.3301423 0.6418428 0.19168028
0.18419617 2.578272 0.14390102 0.09400398 1.082483 2.2262976 0.29617214 0.6021049
7.7660385e-05 0.90696234 1.5066012 0.12556697 7.7679687 0.109333895 0.30381027 0.23583333
0.83030117 1.1231278 0.11772002 0.08886404 0.38738403 0.007871148 0.14268398 0.3988797
0.7490848 0.22360924 0.5526168 2.5764549 0.12300661 1.9753075e-05 0.002812379 0.18588391
2.1522934 0.3924181 0.49949244 0.056786835 0.77092034 0.6802877 0.25678998 0.13797963
5.3075976 0.13949925 0.14452288 0.31261218 0.09620673 0.28940728 1.0669953 0.86064625
0.4488781 0.04408725 0.058179103 0.8065288 0.40299442 0.1736577 0.07501027 0.6695493
1.2301731 0.08986337 0.3522614 2.4443538 0.19439928 0.14183365 0.24132487 0.22925343
0.12538819 0.17875838 0.23594451 0.72293043 0.54203796 0.3243188 0.37003285 0.42495024
0.32669544 1.8342882 0.11174093 0.43313423 5.0485387 1.2394964 0.007771094 0.68436486
0.13474718 2.1068356 0.0661864 0.06499985 0.0002459027 0.06438373 0.37984005 0.05550137
0.20199436 0.59567505 9.887913e-06 0.70966345 0.15982 0.16016975 0.73252755 1.0352355
0.03393576 0.32951865 0.10568711 0.085341685 0.3339163 0.3814498 0.6038259 0.14922018
0.22892639 2.68382 0.68353057 0.47796902 0.55849195 1.3320249 0.2661263 0.16815259

fc2.weight f4 [128, 132]
00000000: e89f b4bb f6fc 6c3e 880e b739 0a8f 25be
00000010: 0291 313d 05d2 c8bd 0a5e aebe 92c7 81bc
00000020: 6d02 403d 617d 8cbd e356 a7be d100 3cbe
00000030: 4b21 1f3e b988 1bbe 2ed8 863d 6b6f d23d
00000040: 4535 88be 4e7f cfbc b8be 14be f278 37bb
00000050: a061 b6bd 4fc7 383e 95ef bdbe 0e63 74be
00000060: d22c d3bd d8f4 8ebb 0214 87be e7b7 363d
00000070: 5c9d f23d 6fa7 3d3e 7e59 4bbe 33c0 10be
00000080: 33e4 92be 8831 e63b f67a 053e e96c 7cbe
00000090: 0e62 c5be 36b8 52be 74c1 3e3e e9dd 1c3c
000000a0: ced9 823d 87de 8b3b 98de 56be d496 953d
000000b0: b4f3 84be 2bfd 0cbe 899a 083e d04f 89be
000000c0: 95be 183e 5a20 71bd ecff ee3d 69f6 5d3d
000000d0: 7a5d e2be 7c5a f3bd 4e86 16be 3130 aebe
000000e0: 5252 873c 3e61 6e3d 184e fc3d 7fc5 efbd
000000f0: 7d52 043e e078 8e3e 46e5 94bd 7332 6b3e
00000100: d6f1 c13c 3a49 65be 8256 16bd 54f6 3bbd
00000110: 5771 2cbe f8c3 d43d 994b 98bd 12bf 02bf
00000120: 85a1 d9bc e9cf 92bd f82f 913d 0907 03be
00000130: a48a 86be 1a1b 95be 27c2 b1be 51bb 8b3d
00000140: 93d7 34be 1a80 f93d 3d01 bcbe 3c71 78be
00000150: 39dc 853e 1ca2 9fbd a624 9c3e 5dfa 44bd
00000160: c5e9 edbb b904 87bc bef0 37be 23ac 163d
00000170: b8d9 953c bf26 933d 06ee e3bb 03a5 c5be
00000180: b47b 13be 8cd7 8b3d 2bbd 88be 9978 f7bd
00000190: f5d9 4a3e b55b 21bd ac2d 2fbe 7129 913d
000001a0: 7bc1 b33b 488c a3b9 eb67 e1bd b556 153e
000001b0: b910 e83d 09dc b1be 3956 1ebd 99ec 053e
000001c0: 0910 9b3d 8d3a b3bd ea4a fabd 8b36 c7bd
000001d0: 09bc ccbd 306a 943d 9a42 21be 44e5 05be
000001e0: 29c5 3bb8 4236 d73d 5910 1dbe 86cc 71bd
000001f0: 10f9 2b3b 2d2c 853e cfeb ccbe 68ab 3a3c
00000200: 0903 133e e77e 913d c965 f83c 91f6 113e
00000210: 117e 1d3e 42cb 8bbe 95a6 8cbc 6b3a c5bd
00000220: a52b 8b3e 50a7 5f3c 7bea a6be 21a8 68bd
00000230: 2294 653d e605 b2bc 5b55 8dbe 58db 75bd
00000240: 1fac 08be 702c adbd 2c61 7e3c 17d3 c13d
00000250: 70c3 883c 354c 363d 5b45 63be df10 94bd
00000260: c152 913e 4cfd f43e d634 62be bd3f ec3d
00000270: b686 103d 7542 9abe 45aa f6bd 0dd6 92bc
00000280: 8afb 063e 6ccf 8d3c f3bb 71bd 7ecb 16be
00000290: 8611 08bf 90a5 813d 8d96 88be 245a 363e
000002a0: fa0e 18be 415b 0b3e 7f16 1c3e fee3 623b
000002b0: 5f30 40be 6324 6ebe 3620 403e 48c9 4dbc
000002c0: ec82 cebc e3dd f93d 952a 3bbc a582 66bd
000002d0: 39ab 6bbe 7f35 6e3e 8b35 ec3c 67d6 da3c
000002e0: 2164 7a3e 6ac3 3c3e f9f5 1e3d e33e 9dbd
000002f0: 8d49 213e 89f3 9e3d 8985 2f3e fa38 ddbc
00000300: 96fd ce3d 929d 8a3d 11cd d5be d58e 72bd
00000310: abe9 0a3c 7db8 283e bf7a bd3d 4e1d 52be
00000320: 8346 3e3e 06ea 44be c3b4 5abe ed3f 333c
00000330: 317c 753c ba36 8f3d 01e0 8dbe 787c 98be
00000340: 345c a0be ed3c 46bd e04a 20be a42e d23d
00000350: 8564 acbe b5ef 82bd 4882 9d3e c0db 0a3d
00000360: 7d62 953e e320 dbbd 1b48 af3e 01e1 dd3d
00000370: 9c97 3f3d de72 3b3e 2ef1 86be cb39 60bc
00000380: d82f 413d d428 1f3d 922f 3dbb 82aa a7be
00000390: 6d81 6a3d 38c9 16be 7862 123e cf17 18be
000003a0: bc56 32bd d980 1f3d 9497 97bd 6bc9 cebe
000003b0: 0824 523e 2171 733d 3789 2c3d 0a79 12be
000003c0: 91ee 923e be06 ba3c 2cbc 5fbe f131 eabc
000003d0: 99e0 c1bd 96cf 823d fbdd 673d 02c3 5c3e
000003e0: 0aa4 483e 0b59 e6be bd38 0e3e 5028 8a3d
000003f0: 0eec 72be ee6b 533e 0d11 27be 6ba6 213e
-0.0055122264 0.23143372 0.00034915307 -0.16167846 0.04335118 -0.09805683 -0.3405612 -0.015842233
0.046877313 -0.06859852 -0.32683477 -0.18359686 0.15540044 -0.15188874 0.06584202 0.102751575
-0.2660314 -0.025329258 -0.14525878 -0.0027995673 -0.08905339 0.1804478 -0.3709685 -0.23865911
-0.10311283 -0.0043626837 -0.26382452 0.044608977 0.1184642 0.18520902 -0.19858357 -0.14135818
-0.28689727 0.0070249476 0.13035187 -0.24650921 -0.38551372 -0.20578083 0.18628484 0.009574392
0.06389199 0.0042684707 -0.2098335 0.07304159 -0.2596718 -0.13768451 0.133402 -0.26818705
0.14916451 -0.058868743 0.11669907 0.054190073 -0.44211942 -0.11882493 -0.1469967 -0.34021142
0.016518746 0.058198206 0.12319583 -0.11707591 0.12922092 0.27826595 -0.07270293 0.22968464
0.023674887 -0.22391215 -0.036703594 -0.045889214 -0.1684011 0.103889406 -0.07436294 -0.510728
-0.026566276 -0.07168562 0.070892274 -0.12795652 -0.2627765 -0.2912224 -0.3471844 0.06822837
-0.1766036 0.121826366 -0.36719695 -0.24261945 0.2614458 -0.07794592 0.3049671 -0.048090328
-0.0072605335 -0.016481744 -0.1796293 0.036785256 0.018292293 0.071851246 -0.006955865 -0.38602456
-0.14402658 0.06828222 -0.26706824 -0.12083549 0.19809707 -0.0393941 -0.17107266 0.070879824
0.005485711 -0.000311943 -0.11006149 0.14583857 0.113313146 -0.34738186 -0.038656447 0.13078536
0.07571418 -0.08751402 -0.1222132 -0.097272 -0.09996802 0.07246816 -0.15748063 -0.13075739
-4.4767894e-05 0.10508396 -0.15338267 -0.05903294 0.0026240982 0.26010266 -0.40023658 0.0113934055
0.14356627 0.07104283 0.030321972 0.14254214 0.15380122 -0.2730351 -0.017169276 -0.09630283
0.27181736 0.01365073 -0.3260077 -0.056800965 0.056049474 -0.021731328 -0.27604184 -0.060023636
-0.13346909 -0.084557414 0.015526097 0.0946409 0.016694754 0.04450627 -0.22194426 -0.072297804
0.2838345 0.478495 -0.22090468 0.115355946 0.03528472 -0.30128828 -0.12044195 -0.017924333
0.13181892 0.01731082 -0.059017133 -0.14726064 -0.5315174 0.06330407 -0.2667736 0.17807823
-0.14849463 0.1360903 0.15242957 0.0034620757 -0.18768452 -0.23256068 0.18762287 -0.012560196
-0.025208913 0.12200525 -0.011423727 -0.056276936 -0.23014535 0.23262595 0.028834125 0.026713563
0.24452259 0.1843392 0.038808797 -0.0767801 0.15750714 0.077612944 0.17140783 -0.027004708
0.101069614 0.067683354 -0.41758016 -0.059218246 0.008478562 0.16476627 0.092519276 -0.20518991
0.18581586 -0.19229898 -0.21358018 0.010940534 0.014983223 0.0699286 -0.27709964 -0.29782462
-0.31320345 -0.048397947 -0.15653563 0.10262802 -0.3367044 -0.06393377 0.3076346 0.033900976
0.29176703 -0.10699632 0.342347 0.10833932 0.046775445 0.18305537 -0.2635588 -0.013685654
0.047164768 0.038857296 -0.0028867465 -0.32747275 0.057252336 -0.14725196 0.14295375 -0.14852832
-0.043539748 0.038941238 -0.07401958 -0.40388045 0.20521557 0.05943406 0.042123046 -0.14303985
0.28697637 0.022708293 -0.21849126 -0.028588267 -0.09466667 0.0638725 0.05660818 0.21558765
0.19593826 -0.4498981 0.13888831 0.0674597 -0.2372286 0.2064664 -0.16315098 0.1578614

fc2.bias f4 [128]
00000000: 399b 99be 5fd4 9bbe 068e 88be 4ad0 38be
00000010: b9e8 32be a2cc 1fbe fdec c5be 8434 89be
00000020: 92a6 1bbe f472 88be 6216 d4bb c105 9abe
00000030: 8f88 4dbe 04aa 75be 8ea4 85be 1cac f9bd
00000040: 5ca0 ddbd 8393 84be 05b7 75be a6fd 43be
00000050: 087e 563d 2a69 77be 88a5 8abe 3af8 d7bd
00000060: d764 85be c1ef 1bbe eba5 0f3e 72dc c73d
00000070: ad80 0dbe dbec a8bd 6ade 2abe 8cba 20be
00000080: 5874 83be 487a a6be d2c3 97be f333 4dbe
00000090: 978d 9abe 919a 0fbe 1b20 72bd 3344 6dbe
000000a0: 1c4e febd 05b0 3ebe 0cad 87be f8c8 a5be
000000b0: f247 16be 7db5 a9be e9e5 82be 1045 93be
000000c0: e1bf 23be ae05 64be 5de3 cc3c 6920 26be
000000d0: 9ef7 3cbe 4269 803d 7555 78be a5da 7cbd
000000e0: d642 e9bd 1a7b 58be 8ad7 25be d4b8 2cbe
000000f0: 389c 36be 66a3 2ebe 25de 0bbe d0cb 22be
00000100: 3ab8 74be ef45 95be 8fa9 abbd 5a4a 10bd
00000110: d8b7 56bd 1c16 a0be c262 86be 3db3 53be
00000120: d676 d6bd 2e10 8ebe a14a 37be a24a 42be
00000130: b5e2 af3d 3081 7ebd 600d 38bd 670e 94be
00000140: 24a6 8abd 9dd0 47be e618 bcbe f2e3 b1be
00000150: 2510 0dbe 60a9 94be 2408 8bbe 49e4 a4be
00000160: 77cc 3b3e 913e 36bb d5dc 96bc fa8e 67be
00000170: 7d7d 98be bdf3 72be b040 a63d 0d67 e03d
00000180: da69 3dbe 892d 53be 5d4f 70be 69f6 dcbd
00000190: eca8 3ebe dc02 253e d23b aa3d 23da 67be
000001a0: eb4e 45be 4891 80be 65b8 443e b164 883e
000001b0: 1760 613e 1ebb 8bbe 3fc8 a4be 5fa6 923e
000001c0: cb4a 3cbe b75a b4be f174 ea3e 40b1 62be
000001d0: e647 7bbc 4c25 bfbd 8d5a 823e 7587 65be
000001e0: 4b06 143d 069f 773d 76d1 78be 669c 4ebe
000001f0: 9030 50be 4d6e 24be 46f4 cabe 6b14 84be
-0.30001238 -0.30435464 -0.26670855 -0.18048206 -0.17471589 -0.15605405 -0.3865737 -0.2679788
-0.1520026 -0.26650202 -0.006472395 -0.30082515 -0.20071624 -0.23990637 -0.26102108 -0.121910304
-0.10821602 -0.25893793 -0.23995598 -0.19139728 0.052366287 -0.2416121 -0.27079415 -0.10545392
-0.26053497 -0.15228178 0.14028136 0.097588435 -0.13818617 -0.082483016 -0.16686407 -0.15696162
-0.256747 -0.32515168 -0.29641587 -0.20039348 -0.3018615 -0.14023806 -0.05911265 -0.23170547
-0.12417242 -0.18621834 -0.26499212 -0.3237989 -0.14675882 -0.33146277 -0.25566033 -0.28763628
-0.15991165 -0.22267792 0.025010759 -0.16223301 -0.18453833 0.06270076 -0.2425135 -0.061731953
-0.11389701 -0.2114071 -0.16195503 -0.16867381 -0.1783303 -0.17054519 -0.1365896 -0.15898061
-0.23898402 -0.29154918 -0.0838195 -0.035227157 -0.05242142 -0.31266868 -0.2624722 -0.20673843
-0.10471885 -0.2774672 -0.17899562 -0.18973783 0.08588163 -0.06213492 -0.04493463 -0.28917238
-0.0676997 -0.19513173 -0.36737746 -0.3474422 -0.1377569 -0.29035473 -0.27154648 -0.32205418
0.18339716 -0.0027808289 -0.018415848 -0.22613135 -0.2978324 -0.23725791 0.08117807 0.109571554
-0.1849741 -0.20622839 -0.23467775 -0.107891865 -0.18619126 0.16114372 0.08312191 -0.22641806
-0.19268386 -0.2511084 0.19210966 0.2663932 0.22009312 -0.27291197 -0.32184026 0.28642556
-0.18387906 -0.3522546 0.45792344 -0.22137928 -0.015336966 -0.09333286 0.2545971 -0.22414954
0.036138814 0.06045439 -0.24298653 -0.20176849 -0.20331025 -0.16057701 -0.3963949 -0.25796828

fc3.weight f4 [1, 128]
00000000: 3901 13bd 58d2 02be 3efe d7bd f891 d7bb
00000010: dc5f bcbb e33d 183d 00d5 98bd 6ad7 3a3c
00000020: c3e8 a13d b6f8 3a3d 19d3 d83c 09b7 27be
00000030: ab46 1dbe 08b8 97bb 92c5 39be 1125 8c3b
00000040: f808 6f3d 9288 de3d bd98 dc3c 97b8 45bd
00000050: f5e9 da3d 6a4a 5c3d 2a93 b73b d6d1 ed3c
00000060: a35e e83d 8eb2 3b3d 0ce5 a73d 1c1a 3e3d
00000070: 5de7 843d b13d fb3c 0a04 cc3c 79de 69bd
00000080: fc69 0bbd 59c1 50bd 874a 483c 3427 92bc
00000090: dfbf b3bc 1511 80ba c7c6 973c 3d6e b6bd
000000a0: 3364 b93c 941b 1fbe a6ab 4c3c fc3f babc
000000b0: 07e3 0c3c 3aea 24be 2447 6e3c c4d2 713c
000000c0: 250d 20bc 947f e4bc 7e9c 2b3c 31e3 0a3c
000000d0: bd78 36bd 3c87 6c3c ec36 d83d d460 013d
000000e0: 0756 193d 8285 f83b c252 7dbc 9645 a23b
000000f0: d401 443b e5bb 813d aebb cf3c 1b8d 2b3d
00000100: 6c23 b53c b978 07be 0a15 a43c b2b5 ab3c
00000110: 179e 223d b8ec 56bd 2a8c 83bd aac7 ba3c
00000120: c790 28bd 8143 81bd 6124 47b9 bb3d 043d
00000130: 91fb bb3c cbfd ca3c e9ba 173d 4ed7 8bbc
00000140: 4d01 7c3c 7124 343a 69df 60be 0ac8 4fbe
00000150: 3fcf e4b8 7da8 f7bc 79dd 38bd 2214 b8bd
00000160: 5a6b db3d f516 9e3d e734 6b3c 8391 9ebe
00000170: 00da 4d3d a1ac 4f3b 175d c63c 3b7e b73c
00000180: de0f 6d3c d5b6 263d ad16 60bd a1b5 dd3c
00000190: e957 4b3d c3bd 0e3d dc54 283d 116d 503c
000001a0: a766 a13d 5117 f93b e384 c03d 4834 d33d
000001b0: 0b24 d13d 1e1d fd3c 9a32 9ebc 94d5 c93d
000001c0: 699e d6bd 0d17 a2bc f1c2 3a3e 4799 23be
000001d0: 64c9 3c3d aee0 453d 5690 593d fb2c 8a3b
000001e0: e7ed b13c b40c 3f3d 96ff 053d 9114 07ba
000001f0: e62a bd3c 4307 ef3b acb1 45bc 6cfe 8cbb
-0.035889838 -0.12775552 -0.1054654 -0.00657868 -0.005748732 0.037168395 -0.074625015 0.011403898
0.07905724 0.045647345 0.026467847 -0.16378416 -0.15358989 -0.0046300925 -0.18141773 0.0042768796
0.058358163 0.108658925 0.0269283 -0.04827174 0.10689155 0.053781904 0.00560226 0.029030722
0.113461755 0.04582458 0.08197984 0.04641162 0.064894415 0.030669065 0.02490427 -0.057096932
-0.03403662 -0.05096564 0.0122248 -0.01784096 -0.021942077 -0.0009770716 0.018527402 -0.08907745
0.022630787 -0.15537864 0.012492096 -0.022735588 0.008599049 -0.16104975 0.014543328 0.014759723
-0.009768759 -0.027892865 0.010474322 0.008477018 -0.04454874 0.014436539 0.105573505 0.031586483
0.037435558 0.0075842747 -0.0154616255 0.004952143 0.0029908316 0.06334666 0.025358047 0.041882616
0.022111617 -0.13229646 0.020029563 0.020960663 0.039701547 -0.052471846 -0.064232185 0.022800285
-0.041153695 -0.063117035 -0.00018991671 0.032285433 0.022947105 0.024779221 0.037043486 -0.017070439
0.0153811695 0.0006871885 -0.21960224 -0.20291153 -0.0001091049 -0.030231709 -0.045133088 -0.08988215
0.10713835 0.077192225 0.014355875 -0.30970392 0.05025673 0.0031688588 0.02421431 0.022399059
0.014469115 0.040701706 -0.054709125 0.027064146 0.049644385 0.03484894 0.041096553 0.012721316
0.078809075 0.0076016565 0.09400346 0.10312706 0.10211953 0.030897673 -0.019311238 0.0985519
-0.10479433 -0.019786382 0.18238427 -0.1597644 0.0460905 0.048309974 0.053116165 0.004216788
0.021719886 0.046642974 0.03271445 -0.0005152906 0.023091745 0.007294567 -0.012066286 -0.0043027904
